backend/ml/models/best_model_15m.pt (torch, 870389 bytes, 10 tensors)

lstm.weight_ih_l0 f4 [512, 34]
000000 57 d9 57 3d 59 94 8b bc 9e c8 59 bc 85 54 a3 3c
       0.052697506 -0.017038511 -0.01329246 0.019937763
000010 04 0e b7 3d 58 0c a0 3c 32 b1 76 3d 9c 55 ff 3c
       0.0893822 0.019537136 0.06022758 0.031168751
000020 41 78 16 3c d7 97 68 bc 51 f7 7d bc 5e 5a 53 3c
       0.009183944 -0.014196358 -0.015500859 0.012899963
000030 7b 57 17 3c 60 f2 a1 b9 e1 86 ec bc c5 fb b1 bc
       0.009237166 -0.00030888896 -0.028872909 -0.021726498
000040 c5 2b 0a bd 41 91 84 3d 83 31 9a bd fd 17 11 3d
       -0.033733148 0.064730175 -0.07528975 0.035423268
000050 7d 7e bc bd d3 f5 8b 3c 8e e0 25 bc 72 bd ad 3c
       -0.09203813 0.017084992 -0.010124339 0.021208499
000060 a1 89 7a bc 0a 13 87 bc 8f d7 8f bd be 90 b0 bd
       -0.015291602 -0.01648857 -0.070235364 -0.086213574
000070 06 4f e8 3a b6 b1 cf bb 42 5a 5c 3c 22 33 5c bc
       0.0017723746 -0.0063383235 0.0134492535 -0.013439925
000080 ef 2a c6 bd fc 41 d3 3c 15 b5 6d 3d 38 74 8b bd
       -0.09676158 0.0257883 0.05803402 -0.06809276
000090 48 d6 96 3d 4c 50 db bc df 97 8b bb 82 d5 67 3c
       0.0736509 -0.026771687 -0.004260048 0.014150025
0000a0 a0 84 d8 3b f7 3a 35 3d 0d 89 86 bd 69 ab 58 3d
       0.006607607 0.044245686 -0.06569109 0.052897844
0000b0 12 5c 0a bc f7 5b d4 bd a1 54 8a 3d cf bc 8e bd
       -0.008444803 -0.103691034 0.06754423 -0.06969606
0000c0 6a 42 32 3d 0b 81 a0 3d 4f 7e 9e bc 75 94 75 bd
       0.04352037 0.07837113 -0.019347338 -0.059956033
0000d0 7f d2 88 bc a3 2e 82 bd 51 dc 8e bd 0e 11 8d 3d
       -0.016701935 -0.063565515 -0.06975616 0.068880185
0000e0 d2 d5 84 3d 4f 12 8d bc 54 f6 3c bc 7b 7c a0 bd
       0.064860955 -0.017220644 -0.011533339 -0.07836243
0000f0 08 11 d2 bc c4 be 75 bd 0e 22 da 3b e9 17 9b 3c
       -0.025642887 -0.05999638 0.0066568917 0.0189323
000100 76 b3 42 3d 5a 07 b8 3c 09 65 32 3c 3a ea 6e bc
       0.04753443 0.022464443 0.0108883465 -0.014582211
000110 9e 72 da bc 4d 14 96 3c a3 1f a4 bc 67 ac 27 3d
       -0.026665982 0.018320227 -0.020034617 0.0409359
000120 eb 5f a8 3c 74 57 83 bd 54 d1 69 bd ac c2 98 bd
       0.02055355 -0.06413165 -0.057084396 -0.07459006
000130 c8 b3 bb bc 3e 31 50 bd 17 29 62 bd 20 08 94 3d
       -0.022912875 -0.05082821 -0.055214968 0.07228112
000140 d5 fc b3 3d ee 61 98 bc 70 be 6f bd 1b 05 89 3d
       0.08788458 -0.018601384 -0.058531225 0.06690427
000150 4d 39 88 3d 7d ac 07 3d 1c 17 9c bc 20 5a 42 bd
       0.06651554 0.033123482 -0.019053988 -0.04744923
000160 c5 a0 93 bd e5 49 31 3d e2 b8 33 bc a6 c1 e7 bc
       -0.07208399 0.043283362 -0.0109693725 -0.028290581
000170 3b 88 b4 bd 38 ba 9d 3d 33 fd 06 3d e3 6d 9b bc
       -0.088150464 0.07701534 0.032956313 -0.018973297
000180 5e 2d c7 bd 68 24 5c bc 0c 8c 68 bd 1b 3c 0e 3c
       -0.0972545 -0.013436414 -0.056774184 0.008681322
000190 48 c1 c2 bd 10 cc 30 3d 70 1b 2d bd d0 2d 29 3c
       -0.09509522 0.04316336 -0.042262495 0.010325864
0001a0 9f b5 55 3d 42 70 07 3c df 69 17 3c b2 11 20 3d
       0.05217516 0.00826651 0.00924155 0.039079376
0001b0 c0 5d 53 3c c0 2f 6c bb c3 87 5a 3d bb 8b a4 bd
       0.01290077 -0.0036039203 0.05335213 -0.08034464
0001c0 5f bc 2a bd 51 c0 43 bd a6 22 99 bc 74 45 bf bd
       -0.04168355 -0.04779083 -0.01869328 -0.09339419
0001d0 fd 54 75 3d 73 f0 80 bd ad 1d 0d 3c 06 d0 35 bd
       0.059895504 -0.06295862 0.008613032 -0.04438784
0001e0 3b b5 f8 bc 0b 51 2c 3d 4b 00 90 3b e7 4d 46 bd
       -0.030359855 0.042069476 0.004394566 -0.048414137
0001f0 6e 3c e2 3b ae bb 6c 3d 29 e6 98 3d 4c 75 93 bd
       0.0069041764 0.057796173 0.074657746 -0.07200107
000200 ed 7a b3 3d 63 24 0e bc 84 08 bc 3c fe a3 45 b9
       0.087636806 -0.008675667 0.02295328 -0.00018848476
000210 c2 6d 3a bd 91 de 80 bd a8 a6 6c bc a9 c7 6c bd
       -0.04551483 -0.06292451 -0.014444031 -0.0578076
000220 17 5b 3a 3c d7 e4 9e bd aa fb 8a 3d ad 85 ac 3d
       0.011374257 -0.077584915 0.06786282 0.08423934
000230 58 bc ee bc b6 b8 89 bc eb d1 64 3d 1a e5 b4 bd
       -0.029142544 -0.01681171 0.055864256 -0.0883276
000240 0b 80 81 3d 9a 73 91 3d 40 d2 5f 3d a2 c6 ea 3c
       0.063232504 0.071021274 0.05464387 0.028659169
000250 7b ab 7f 3d f0 da a1 3d f4 26 61 bd d5 7e 1f bc
       0.062419396 0.07903087 -0.05496879 -0.009734829
000260 9f bd f9 3c 0c c1 e8 bc 78 cd c9 3c e4 3c 23 bd
       0.030485926 -0.028412364 0.024634108 -0.03985299
000270 b6 48 aa bd a7 c6 ae 3c b4 b2 01 3d d5 f2 4b bd
       -0.0831465 0.02133496 0.031664565 -0.04979213
000280 32 a4 02 3d 91 c5 34 3a 39 5c 1c 3d b3 84 02 3d
       0.03189487 0.0006895895 0.038173888 0.031864833
000290 34 0a af 3c ce 9c d3 bc 54 a5 cc 3c 37 d1 90 3d
       0.02136717 -0.025831606 0.024981178 0.070711546
0002a0 fa 7d 74 bb 5a 2c 83 3d 37 ed da 3b 12 56 35 3d
       -0.0037306533 0.06404944 0.0066811102 0.044271536
0002b0 8a 09 ab bd 68 35 cf 3c 8a 13 92 3d 01 99 1f bd
       -0.08351429 0.02529402 0.07132633 -0.038964275
0002c0 0a 92 70 3d 2f 15 f6 3c 72 74 25 bd 1a a6 a4 bd
       0.058733024 0.030039398 -0.040394254 -0.08039494
0002d0 0a 51 11 bd 60 03 12 3d 56 c2 85 bd 48 2a 5f 3c
       -0.035477675 0.03564775 -0.06531207 0.0136209205
0002e0 98 50 dc bc ef 89 a2 bd 74 48 d8 bc 4e a9 32 bd
       -0.026893899 -0.07936465 -0.026401736 -0.043618493
0002f0 36 80 84 3d 44 53 a2 3c 16 e6 a7 bc 6c 68 2c 3d
       0.06469767 0.019815095 -0.020495456 0.042091772
000300 ee 7e 94 bc 5e bc 9f bd ca 10 ae bd 39 b1 93 3d
       -0.018126931 -0.077996 -0.08499296 0.07211537
000310 b4 41 9e bd 1a 82 2f 3d 3f 6e 90 bd 2b 55 cf bb
       -0.077273756 0.042848684 -0.07052278 -0.0063272915
000320 67 a2 d6 3b c7 64 96 bd be d8 83 bd 3f 3b 34 bd
       0.0065501216 -0.073434405 -0.06437825 -0.044001814
000330 82 4a 31 3d 27 22 38 3d bd 16 50 bc ae aa 38 bd
       0.043283947 0.044954445 -0.012700734 -0.045084648
000340 51 cc 3d bc f0 0f b3 bd 92 ea 7c bd d9 8b 27 3d
       -0.011584357 -0.08743274 -0.06174714 0.040904853
000350 7d 85 15 3d 9f bd 1a 3d 2b 35 2b 3d 25 c9 85 bd
       0.036504257 0.037778493 0.04179875 -0.06532506
000360 0c 02 f8 3c ad 85 56 3d b4 51 1a 3c 13 d9 b2 bc
       0.030274414 0.052373577 0.009418894 -0.021832025
000370 86 f8 b6 3d 37 ce 96 3d 2c e7 a5 3d d0 91 e3 bb
       0.08934121 0.07363551 0.08100733 -0.0069448724
000380 58 27 88 bb 98 4f 88 bd c6 8d 29 3d a1 fe aa bd
       -0.0041550808 -0.06655806 0.04139497 -0.08349348
000390 8b a0 c1 bd 05 9d 6f bc da cd 3d bb fe 18 08 be
       -0.09454449 -0.014624839 -0.0028961808 -0.13290784
0003a0 2d 4e f9 bd db 17 b5 3c 16 7e 84 bd b1 a3 a8 3d
       -0.12173114 0.022106102 -0.064693615 0.08234347
0003b0 56 e0 54 bd e2 49 8d 3d 72 40 dd 3b bd 8c 0d 3d
       -0.051971756 0.06898858 0.0067520672 0.034558047
0003c0 22 2e 37 3b b4 17 1a bc 95 84 81 bd e6 64 2f bd
       0.0027951081 -0.009405065 -0.06324116 -0.042820834
0003d0 ce ad f6 3c 97 dd b6 bd 6f 30 df bd a1 0d 70 bd
       0.030112173 -0.08928984 -0.1089791 -0.058606748
0003e0 b6 e4 c6 3d 8d a6 15 bd da 30 80 bc 97 23 24 bd
       0.09711592 -0.03653579 -0.015648294 -0.040073004
0003f0 c7 42 ab bd 7c a4 2f 3d 14 71 d9 3c 1e eb b2 bc
       -0.08362346 0.042881474 0.026543178 -0.021840628

lstm.weight_hh_l0 f4 [512, 128]
000000 79 10 8f 3d 4a 95 b5 3d c9 3e a2 bd 7e df bc 3c
       0.06985564 0.08866365 -0.079221316 0.023055788
000010 2d 5f 92 3d 2f 56 9d bd ab 07 91 3d 9a 25 14 3c
       0.071470596 -0.07682454 0.07081541 0.009042168
000020 c3 4b 30 3d 5a e1 ca 3d 7f d4 9f 3b d9 d2 cb bc
       0.043041002 0.09906264 0.0048776264 -0.024880813
000030 52 ee 90 3d d5 7f 68 3d 65 a5 25 3d 75 11 d3 bc
       0.07076706 0.056762535 0.040440936 -0.02576516
000040 73 9f 34 bc 34 31 4d 3d d5 3c 30 bd 02 cd 20 3c
       -0.011024344 0.050095752 -0.043026764 0.009814503
000050 53 be 9e 3c c3 b5 e8 bc ef 97 99 bd 4b 15 88 3d
       0.019377863 -0.028406983 -0.07499682 0.06644686
000060 3a 48 f5 bc 23 87 a9 bc cf c4 74 3d 45 29 72 3d
       -0.029941667 -0.020694321 0.059758004 0.05912139
000070 36 62 0c bd f5 7a cd bb f6 7d 74 3d d4 4f 4b 3d
       -0.03427335 -0.006270761 0.05969044 0.049636677
000080 10 a9 68 bd 87 31 61 bd 81 5f 83 bc 15 6d 29 3d
       -0.056801856 -0.054978874 -0.01603675 0.041363794
000090 00 55 8c bc b6 11 21 3b 13 17 57 bd 6a 02 5a 3d
       -0.017130375 0.0024577207 -0.05251224 0.05322496
0000a0 c1 0b 4d bd 45 e6 93 3d 97 54 be bd 6b cc 5b 3d
       -0.050060038 0.07221655 -0.09293478 0.053661745
0000b0 66 09 fd bc 74 75 8c bd fc 8e b9 bc 47 b7 12 bc
       -0.03088827 -0.0685834 -0.022651188 -0.00895483
0000c0 4a d4 2a bd 02 d6 95 bd 15 6c 2d 3d 3e 8c 07 bd
       -0.04170636 -0.073162094 0.042339403 -0.03309273
0000d0 ac b2 b9 3d 34 31 28 bc dd 9b 6d bd e6 35 bb bd
       0.09067282 -0.010265637 -0.05800997 -0.0914114
0000e0 72 a9 a0 3d 9c 28 bb bc 49 d1 a2 3d 4c 36 0b 3c
       0.07844819 -0.022846512 0.07950074 0.008496832
0000f0 1f a2 99 bb 0f 3b eb 3c 76 da 3e 3d ba 86 78 bd
       -0.004688516 0.028714685 0.04659506 -0.06067536
000100 55 cc 10 3c ff 73 da 3c 42 50 b4 3d 70 f5 4e bc
       0.008837779 0.02666664 0.088043705 -0.012631759
000110 64 d5 8f 3c 62 53 77 bd 9b 03 9c bd c1 4c 84 bd
       0.017557807 -0.060382254 -0.07617875 -0.06459952
000120 98 d3 77 bc b6 5f 9e 3c 60 23 b0 bc f7 ee 73 bc
       -0.0151261315 0.019332748 -0.021501243 -0.014888517
000130 35 56 16 3d 9b a1 90 3d c0 95 d9 3c a9 f2 a3 bd
       0.036703307 0.07062074 0.026560664 -0.08005268
000140 44 b4 80 bc 87 d5 25 3d 08 2f 51 bd 2b 31 b3 3b
       -0.015710957 0.04048684 -0.051070243 0.0054685078
000150 07 f9 54 3d 9a 90 70 3d 7a de 19 bc c3 e2 b4 bd
       0.051995303 0.058731653 -0.009391421 -0.08832314
000160 6a 55 2c 3d 63 04 87 3d ca 88 71 3d a8 9d 78 bd
       0.042073645 0.065926336 0.058968343 -0.060697228
000170 dd a5 2d bd 60 68 e1 bb 02 63 50 bd 94 30 8c bb
       -0.042394508 -0.0068788975 -0.05087567 -0.004278252
000180 2b 29 5a bd 54 bc ad 3d 06 d6 dd bc 93 cc 7f bd
       -0.053261917 0.08483186 -0.027079593 -0.062450957
000190 6d 9e 5e 3d 59 eb da 3b 7a d2 07 3d ea fe 17 3d
       0.054350305 0.0066808877 0.03315971 0.03710834
0001a0 8f 82 38 bd b2 2d 22 bd bc a4 e4 3c f1 dc b2 bd
       -0.045046385 -0.03959436 0.027910583 -0.087335475
0001b0 67 71 cf bc 93 cc 6a bd 85 a2 51 bd 04 71 34 3d
       -0.02532263 -0.057324003 -0.05118038 0.044053093
0001c0 b1 ed 48 bd 79 ff 52 bc 83 c6 2d bd b7 26 94 3c
       -0.049054805 -0.012878292 -0.042425644 0.018084867
0001d0 07 b3 5d bd 54 fb 3d 3d 1b 58 8b 3d 10 28 39 bd
       -0.054125812 0.046382263 0.06803914 -0.045204222
0001e0 c4 ab 07 bd f3 ae 91 3d a2 41 10 bd fa a7 4f 3d
       -0.033122793 0.07113447 -0.035218842 0.050697304
0001f0 48 0e 42 3b 16 b7 38 3d 00 6c eb bc eb 75 89 bd
       0.0029610563 0.04509648 -0.028738022 -0.06711944
000200 f4 4d a6 3c 4b 0a 42 3b b9 9d 7e bd 70 c2 5e bb
       0.020300843 0.0029608186 -0.062162135 -0.0033990405
000210 04 5a 3a 3c 82 ba 95 3d 68 4c 5e 3d a4 bc 0f bd
       0.011374 0.07310964 0.054272085 -0.03509201
000220 74 c2 b2 3d 89 8d 14 3d f9 61 1b bc 7f a6 51 bd
       0.08728495 0.03626779 -0.009483808 -0.051184174
000230 fc 07 b5 3d f6 49 b2 3d 24 70 24 3d f9 c9 e5 3c
       0.088394135 0.08705513 0.040146008 0.02805041
000240 3f 67 dc bc 3c c2 76 bd 7f ee 67 bd d3 26 88 3d
       -0.0269047 -0.06024383 -0.056623932 0.0664803
000250 de 25 ef 3c 00 b0 fb 3c 6d 57 9a bd 44 ca 94 3d
       0.029192861 0.030723572 -0.075362064 0.072651416
000260 0a 90 89 3d cf 4f 05 3d 2b bc f9 3c 44 ca ae 3c
       0.067169264 0.032546815 0.030485233 0.021336682
000270 01 57 39 3d ec df 9f bd cb 03 bd bd 90 2b 7a bd
       0.04524899 -0.078063816 -0.09229239 -0.0610767
000280 7e 37 b6 3b 5c 11 cc 3c cb e6 1b 3d 9d a1 a1 bd
       0.0055608144 0.024910621 0.0380619 -0.078921534
000290 bf 1e ab bc c5 c8 9e 3d 5a 94 de 3a d9 3a 40 3d
       -0.020888684 0.077531375 0.0016981468 0.04693112
0002a0 f1 97 e0 3b bd 01 be 3b 68 97 60 3d 35 c9 6b 3d
       0.0068540503 0.005798547 0.054831892 0.057564933
0002b0 0b d4 ae 3d 56 86 e3 3c 2c 49 02 3d 52 3b a4 3d
       0.08536538 0.027774017 0.031808063 0.08019127
0002c0 b5 53 54 3d 26 dd af 3c 95 de b5 bd 63 5f da 3c
       0.05183764 0.021467756 -0.08880345 0.026656812
0002d0 21 21 39 bd e4 77 6d bd 75 cc c6 bc 08 39 1f bd
       -0.04519761 -0.057975665 -0.024267415 -0.03887275
0002e0 1c b3 7c bc 2e 26 10 3c bc 73 b5 3d 3f 66 77 3d
       -0.015423562 0.008798165 0.08859965 0.060400244
0002f0 b3 8a c2 bd 15 42 a0 3d a9 4a a3 3d d1 c4 10 bd
       -0.09499111 0.07825104 0.07973225 -0.03534395
000300 a0 27 7a 3d 7e ba 4e 3c 2a 8a 46 bb cd 9d c5 bd
       0.061072946 0.012617705 -0.0030294755 -0.09649239
000310 a6 d7 91 3d f2 dd 8e 3d 38 98 36 bc 60 07 d2 bc
       0.0712121 0.069759265 -0.01114469 -0.025638282
000320 84 4a cf ba ef b5 8a bc 75 b9 5b 3d 07 fb 87 3d
       -0.0015815054 -0.016932456 0.053643662 0.066396765
000330 79 98 88 3d 3d 5f 6d bc 92 77 75 3d 77 95 4f bd
       0.06669707 -0.014488039 0.059928484 -0.05067965
000340 c2 37 72 bc f4 fb af 3d 0f b7 d2 bc 19 ed 56 bd
       -0.0147838015 0.08592978 -0.025722055 -0.052472208
000350 61 45 31 bc 72 a5 c3 3c 3b cc 96 3d 03 0d 67 bd
       -0.010819764 0.023882601 0.073631726 -0.056408893
000360 70 17 a5 bd 7e b2 97 bd 22 8b 08 bd b2 37 bc bc
       -0.08061111 -0.074070916 -0.033335812 -0.022975776
000370 2f 14 8c 3d 8b 34 0b bc 7c 5c b9 3d 00 b1 5e bb
       0.06839787 -0.008496414 0.09050843 -0.0033980012
000380 76 a4 34 3c f0 8c 6a 3d 18 df 54 bd 06 80 8b bd
       0.011025539 0.057263315 -0.05197057 -0.06811528
000390 20 57 2e bd 30 67 76 3d c6 6a c7 3c 30 8a ad 3c
       -0.042563558 0.060157 0.024342906 0.021184057
0003a0 49 28 85 3c 74 e4 d0 bc b3 29 46 bb 4e 17 55 bd
       0.016254561 -0.02549956 -0.0030237257 -0.05202418
0003b0 42 56 1f 3d c9 45 09 3d 5a 64 c5 3c dd 2e ad 3d
       0.03890062 0.033513818 0.024095703 0.08456204
0003c0 49 87 89 bd 2e 25 2d 3d 92 40 05 3d 94 58 ea bc
       -0.06715257 0.042271785 0.032532282 -0.02860669
0003d0 d9 f1 f9 3c 45 6c 39 bd 50 81 76 3d 7b a5 3e bd
       0.03051083 -0.04526927 0.060181916 -0.046544533
0003e0 13 b8 52 3d a3 eb cb bc 67 1d 61 3d 82 16 7c 3c
       0.051445078 -0.024892634 0.05495968 0.015386226
0003f0 32 da 14 bd dd fd 0c 3d 27 30 85 3d 8e 22 8b 3d
       -0.0363409 0.03442179 0.06503325 0.067937

lstm.bias_ih_l0 f4 [512]
000000 3c 5c 74 3d 12 79 96 3d 5c 74 41 3d e0 10 a4 3d
       0.059658274 0.07347311 0.04723011 0.08011031
000010 e1 50 81 bc 27 54 01 3c 0d 9f 11 3d 37 f4 d2 bc
       -0.015785636 0.007893599 0.035552073 -0.025751216
000020 3d 39 3e 3d d1 fd 21 bd d4 c1 a9 bd 76 22 22 3c
       0.046441305 -0.0395487 -0.08288923 0.009895911
000030 78 6d 86 bc c5 e2 8b 3c ae 3d 80 bd e1 b5 8e bd
       -0.01640962 0.017075906 -0.062617645 -0.069682844
000040 40 e2 d4 3c 9f a3 96 3c 58 3d 0d bd 51 e0 18 3d
       0.02598679 0.018388567 -0.03448233 0.0373233
000050 1c 8e 85 3d dd ff a0 bd a0 0a 7e 3d b6 12 14 bc
       0.06521246 -0.07861302 0.06202185 -0.009037664
000060 92 d4 d0 bb 99 4b ca bd 0a fc 6d 3c 87 3d 87 3d
       -0.0063729966 -0.098777 0.014525423 0.06603532
000070 76 38 9f 3d 5b 6c 06 bd 4a d3 11 bc c5 1d b8 3c
       0.07774441 -0.03281818 -0.008900473 0.022475133
000080 a1 d0 a6 3d 1a 8b 91 3d 7d 49 9b bd 6c 77 95 3c
       0.081452616 0.0710661 -0.07582376 0.018245421
000090 59 88 c8 3c de e5 23 bd b1 63 9b bd be d4 a1 3d
       0.024479078 -0.04001414 -0.07587374 0.079019055
0000a0 8a 53 13 bd 2f d7 72 3c b1 37 b3 3d ed bd 36 3d
       -0.03596834 0.014821812 0.08750857 0.04461472
0000b0 1b c2 1d bd ae 01 5f bd ff 16 98 bd ee 65 09 bd
       -0.03851519 -0.05444496 -0.07426261 -0.033544473
0000c0 b5 ff a4 3d df 4b e5 3c eb 5b 7a 3d 53 56 7b bd
       0.08056585 0.02799028 0.061122816 -0.061361622
0000d0 94 a9 55 3d ee dd 14 bd 91 d6 2f bd 00 43 54 bd
       0.052163675 -0.03634446 -0.042929236 -0.05182171
0000e0 b5 22 a0 3d 8f 8e 18 bb 20 0f 85 bd 5c a9 aa bd
       0.0781912 -0.002327833 -0.064970255 -0.08333084
0000f0 19 6e c3 3d c4 62 bf 3b df c8 40 bd c7 03 01 bd
       0.09542484 0.005840631 -0.047066566 -0.031497743
000100 de d1 bf bd 14 6c 51 3d 05 da 6d 3d 9e 79 84 3d
       -0.09366201 0.051128462 0.058069248 0.06468509
000110 b7 34 37 3d c2 53 ed ba 8b ae 8d 3c cc 18 39 bd
       0.044728007 -0.0018106627 0.017295143 -0.045189664
000120 c6 96 96 bd 65 10 80 3c 6c 30 a6 3c 64 df b6 3d
       -0.073529765 0.015632818 0.020286761 0.08929327
000130 7e 56 71 bd 46 c4 e7 bd 3e 12 b8 3c 1b b4 95 3c
       -0.058920376 -0.11316733 0.022469636 0.018274358
000140 a4 f8 8e 3d 4c fa ad bd da ff 51 3d c0 22 60 3d
       0.06981018 -0.08495006 0.05126939 0.05472064
000150 48 78 54 bc d6 2e 44 3c 14 4d 3a 3d b6 73 a2 3d
       -0.01296813 0.011974057 0.045483664 0.07932226
000160 0e 36 b9 3c 96 00 03 3c d3 31 66 3b b1 25 b2 3d
       0.022608783 0.007995745 0.0035124912 0.08698595
000170 2f e2 3b bd af 27 8b bd b5 dc ac bd 04 a4 8a bd
       -0.045870002 -0.067946784 -0.08440534 -0.06769565
000180 49 c0 a5 bd 86 fb 9e bc 94 c7 90 bd 8c 00 4e bc
       -0.08093316 -0.019407045 -0.070693165 -0.012573373
000190 da aa b9 3c 9c fe 64 bd 93 6a 41 3c 23 07 31 3d
       0.022664476 -0.055906877 0.011805194 0.043219697
0001a0 71 50 6b bd de 19 2b bd b5 09 0c bb 6f 90 95 bd
       -0.05744976 -0.041772716 -0.002136809 -0.07302939
0001b0 01 ff 10 3d c3 ae 81 3d 68 de bd 3a 51 73 a5 3d
       0.03539944 0.06332161 0.0014485838 0.080786355
0001c0 c8 91 88 bd 36 5a 7f 3d e2 aa de ba a6 87 78 3b
       -0.066684306 0.06234189 -0.0016988183 0.003792265
0001d0 32 bc b5 3c 2f 64 b4 3d 25 e4 55 3d aa cc 53 3d
       0.022184465 0.08808171 0.05221953 0.051708855
0001e0 87 32 eb 3c f9 d7 e2 3b 84 83 9c 3d 90 2d 38 3d
       0.028710617 0.0069227186 0.07642272 0.044965327
0001f0 0a 6b 32 3d d6 75 11 bc f8 5f 6f 3c 37 56 67 bd
       0.04355911 -0.008878192 0.014610283 -0.056478705
000200 83 0e e2 bc 7c 22 2a bd e3 cd 22 bd 93 30 e8 3b
       -0.02759481 -0.041536793 -0.03974713 0.0070858686
000210 3c 3b a6 3d 89 82 9f bd 02 83 86 ba 58 fe 80 3d
       0.08116767 -0.077885695 -0.0010262432 0.06298512
000220 35 b3 35 3d a7 30 a5 bd 90 d0 44 bd 26 4c 46 3d
       0.04436036 -0.0806592 -0.048050463 0.048412465
000230 b9 35 62 bc 83 85 4c bd 25 ce 8b bd ec 30 84 3d
       -0.013806754 -0.049932014 -0.06826428 0.064546436
000240 e4 fb b8 bd 89 e3 a8 bd 27 8d 7e bd 03 19 f7 bc
       -0.09032419 -0.08246524 -0.062146332 -0.030163294
000250 07 e9 64 3c 92 ca 36 bd 43 2b 7b 3d 6e b7 69 3d
       0.013971574 -0.04462678 0.061320554 0.057059698
000260 b7 93 39 3d 58 52 c8 bc c4 ee a8 bc 42 fe 3a bd
       0.045306887 -0.024453327 -0.020621665 -0.045652635
000270 c7 f5 68 3c af f5 b4 bd ca ba 30 3d 0d 19 44 3d
       0.014218754 -0.08835923 0.043146886 0.047875453
000280 fb 61 90 bc 09 99 79 bd c5 60 c7 bc ca 3f 52 bd
       -0.017624846 -0.06093696 -0.024338135 -0.051330365
000290 dc ba 4a 3d 2a 97 c5 bd 57 8f 55 bb bd bd 79 bd
       0.04949461 -0.09647973 -0.0032586658 -0.060971964
0002a0 56 7d 5c bd cc 76 88 bd 4e 00 7e bd be 9b ea bc
       -0.053830467 -0.06663284 -0.06201201 -0.028638717
0002b0 4c df 1e bd 56 d2 5a bd a1 16 4e bb 5b 20 f7 bc
       -0.03878717 -0.05342325 -0.0031446593 -0.030166795
0002c0 62 65 3c 3d 16 7b 95 3d c6 b8 0d bd 87 3c 8e bd
       0.045995124 0.072988674 -0.03460004 -0.069451384
0002d0 8a c5 1c 3d 3b b4 8c bd 9a fa cb bb 1b c9 29 bd
       0.038274325 -0.06870314 -0.0062249424 -0.041451555
0002e0 a3 b7 9d bd 8f c8 07 bc 78 86 33 bd 84 49 93 3b
       -0.077010415 -0.008287563 -0.04382941 0.0044948477
0002f0 27 35 e7 bc 8d 84 0f 3d 51 6d 53 bd d3 a2 bf bd
       -0.028223587 0.03503852 -0.051617924 -0.09357228
000300 63 78 29 bd b1 2a 40 bd 83 66 4a 3b 24 e1 7c bd
       -0.041374575 -0.046915714 0.0030883856 -0.06173815
000310 3e b5 89 bd c2 8a ca bd 5b ce f4 bc 54 83 8a 3d
       -0.06724022 -0.09889747 -0.029883554 0.0676333
000320 0c a1 1b ba 44 ec a5 3d c6 f2 87 bd b3 e2 81 3c
       -0.00059367786 0.08101705 -0.06638102 0.015855169
000330 43 0e 06 bc 62 8c b3 bd b2 cb 39 3d b9 0a 1e ba
       -0.008182111 -0.0876701 0.045360275 -0.00060288195
000340 50 95 a5 bd 22 c4 8a bd 88 51 12 3d c3 a2 04 bd
       -0.0808512 -0.067756906 0.035722286 -0.032381784
000350 11 8a 7b 3d 1f a9 b6 bb e2 8e 63 bd bd 17 26 3d
       0.061410967 -0.00557436 -0.055556186 0.040549982
000360 3d 84 a8 3d 63 1a 4f bd 04 2d c9 3c 01 05 ee 3c
       0.082283475 -0.050562274 0.024557598 0.02905512
000370 90 97 ee bc 6a 84 a5 bd 3d ef a1 bd 6b a4 2d 3d
       -0.029125005 -0.080818966 -0.07906959 0.04239313
000380 93 8f 17 3d f3 c8 a7 3c 21 81 10 3c fa fb 4e bc
       0.037002157 0.020481562 0.008819849 -0.012633318
000390 b1 54 04 bd 7d ca 7b 3d 32 9f 4b bd 2f ca d2 3b
       -0.03230733 0.061472405 -0.049712367 0.0064327936
0003a0 54 ca e7 bd 2c c9 d3 3c 86 ae aa bc f8 9b aa bc
       -0.11317888 0.025852762 -0.020835172 -0.020826325
0003b0 28 bd 8b bc 9f 0c 27 bd 7f b8 a1 3c 44 6f 93 3d
       -0.01705797 -0.04078352 0.019741295 0.071989566
0003c0 1a 65 27 3d b9 3a 00 bd 97 d7 a0 3d 06 89 80 3d
       0.040867902 -0.031306002 0.078536205 0.06276135
0003d0 3e 2a 62 3d ed ac 0d 3d a3 76 b0 3d 56 f6 cd bc
       0.055216067 0.034588743 0.08616378 -0.025141876
0003e0 ec 87 04 3c 71 cd bd 3c eb aa 8d bd 0a fb b8 bd
       0.008089047 0.023169251 -0.06917366 -0.09032257
0003f0 f2 fb 26 3d f2 4f b3 bd 32 1a 01 bd 38 16 c3 bd
       0.040767618 -0.08755483 -0.031519122 -0.09525722

lstm.bias_hh_l0 f4 [512]
000000 3d 94 ef bc fa 74 82 3d 36 ba 66 3d 20 59 92 3d
       -0.02924549 0.06369968 0.05632993 0.071459055
000010 5c b1 a2 bd 1f 5a 8f 3d 77 fe 6a 3d e6 bb 57 bd
       -0.07943985 0.06999611 0.057371583 -0.05266943
000020 0b 47 7a 3d 7a 48 d8 3c d0 7f ca 3c 14 17 48 3d
       0.061102908 0.026401747 0.024719149 0.048850134
000030 20 df d2 3b 56 67 5b bd 39 c9 08 bb 75 b4 45 3d
       0.00643529 -0.053565346 -0.0020871891 0.0482678
000040 4b 22 b1 3d 5a 94 7a bc 76 71 32 bd ae 89 69 bd
       0.08649119 -0.015294159 -0.043565236 -0.057016067
000050 d7 f9 28 bd 99 97 54 bd e9 ea 40 bd ed fb 85 bd
       -0.04125389 -0.051902387 -0.047099028 -0.06542192
000060 73 36 87 bd 83 6d 41 bc 12 ac 11 bd f5 b1 c9 bc
       -0.06602182 -0.011805895 -0.03556449 -0.02462099
000070 0c 60 81 3d f1 ac 53 bd 28 a4 a9 3d ce 03 5a 3d
       0.063171476 -0.0516786 0.082832634 0.053226285
000080 5a db 94 3d 21 f7 93 bd d3 89 c9 bd de b7 89 bd
       0.072684005 -0.072248705 -0.09840741 -0.06724523
000090 9a aa 2c 3d 5c 61 4a 3d 1d 50 b7 bd 7b 2d fb bc
       0.042154886 0.049409255 -0.08950827 -0.030661335
0000a0 c7 2f 3f bd 05 d8 3d bd 3e 92 2b 3d e3 6e 22 bd
       -0.046676423 -0.04634859 0.041887514 -0.03965653
0000b0 3a 1c 7e bd 61 df 3c bd 66 cd 41 3d df bb 9a 3d
       -0.062038638 -0.04611147 0.047315024 0.07555365
0000c0 a0 66 94 bd e0 22 3d bc 86 71 83 3d e4 cd 7d bd
       -0.07246137 -0.011543959 0.06418137 -0.06196393
0000d0 20 63 4e 3d 78 76 3b 3d c4 d4 be 3c 24 2f 70 bd
       0.0503875 0.045767277 0.023294814 -0.058638707
0000e0 d5 60 4e bc 0e d9 a7 bc 54 e5 d4 3c b4 3f 7b 39
       -0.012596329 -0.020489242 0.025988258 0.00023960957
0000f0 2b 22 94 3d 33 6e 8e bd eb f1 ed 3b 68 3c cb 3b
       0.072330795 -0.069546126 0.007261505 0.0062022693
000100 cc 6b 92 bd ab 20 74 3c 7e e1 53 3d dd f9 42 bd
       -0.07149467 0.014900367 0.051728718 -0.04760157
000110 93 f8 55 3d 7f 05 8b bd f5 59 7a bd 2a 95 a2 3d
       0.052239012 -0.06788158 -0.061120946 0.07938607
000120 00 ad 31 3d ad 7c 27 bd 04 3f ad bc 10 2c 89 3d
       0.043377876 -0.040890384 -0.021148212 0.066978574
000130 28 92 b4 3c 2d ba f6 bd f3 91 1c bd 44 5e 3a bc
       0.022042349 -0.12047229 -0.038225126 -0.011375014
000140 76 8d 80 3d f6 e8 35 bd 9f 30 1d bd 81 5e b7 bc
       0.062769815 -0.044411622 -0.038376447 -0.02238393
000150 b9 3d 20 3c ef df 98 3d e3 ff 77 bd 61 c9 3d bd
       0.009780341 0.07464587 -0.060546767 -0.046334628
000160 25 e0 0e 3d 4a 03 92 3d cc ba 90 bd f0 e7 98 3d
       0.03488173 0.071295336 -0.07066879 0.074661136
000170 85 f1 70 3d 27 a6 93 bd 3b b7 ae bd bc e9 b8 bb
       0.05882408 -0.072094254 -0.08531042 -0.0056430977
000180 8b c4 0a bd 16 b3 86 3d 37 85 53 3d 8e ec 49 3c
       -0.033878844 0.06577127 0.051640715 0.012324465
000190 e0 84 bb 3c 9b 62 47 bd 04 9c 7f bd 37 a2 99 bd
       0.022890508 -0.048678022 -0.062404647 -0.07501643
0001a0 1f 4c 55 bd e9 f5 b3 bc 79 2b 11 bc 58 e9 36 3d
       -0.052074548 -0.021967845 -0.008860462 0.044656128
0001b0 78 ad ab bd 0a fc a7 bd 51 59 bc bc a0 aa 4b 3d
       -0.08382696 -0.082023695 -0.022991808 0.049723268
0001c0 2a 86 7b 3d 16 56 6e bd c9 b1 83 bd 25 a9 09 bc
       0.061407246 -0.058187567 -0.06430394 -0.008402144
0001d0 c2 8b 9d bd ea 39 28 bd 89 68 ce 3c 3f e2 79 3d
       -0.07692672 -0.041070856 0.02519633 0.06100678
0001e0 95 a9 81 3c f6 c7 06 3d e5 91 25 bd 68 52 d1 3c
       0.015827933 0.03290554 -0.04042234 0.02555199
0001f0 e2 e9 8e 3b 1d 84 da 3c 8a ea 64 bd 37 f4 96 3d
       0.004361377 0.026674325 -0.055887736 0.07370799
000200 a8 cc 34 3d 0d 30 b2 3d 5f 1d a5 3c 47 bb b4 bc
       0.044140488 0.08700571 0.020155607 -0.022061957
000210 8e 54 54 3d 7f 6b b2 bd 40 bd 18 bb 66 a5 95 3d
       0.05183845 -0.087119095 -0.0023306161 0.07306938
000220 db 6b 8a 3b e5 07 23 3d 91 b1 36 3c bb 11 8f bc
       0.004224283 0.03980245 0.011150734 -0.01746451
000230 56 64 83 bc 57 61 6a 3c 98 84 89 3d 97 70 c6 bd
       -0.016039055 0.014305434 0.067147434 -0.096894436
000240 05 35 b7 bd 4c cf 69 bc cb 9e 92 3d d6 00 b2 3d
       -0.089456595 -0.014270615 0.071591936 0.08691566
000250 67 a8 02 3c f2 ae a1 3d 9d 15 9d bd a0 48 82 3d
       0.007974721 0.07894696 -0.07670138 0.06361508
000260 e5 0d 60 3d 7e 8d 64 bd ed 57 f7 bc 95 d1 08 3d
       0.05470075 -0.055799 -0.030193293 0.033402998
000270 2d d9 24 bd bd e9 a3 bc f6 ce 4a bc 77 75 5b bd
       -0.040246177 -0.020008916 -0.012378445 -0.05357882
000280 10 4e b3 3d d5 78 0f bd be 96 8d bd 58 0e a1 bd
       0.087551236 -0.035027344 -0.069135174 -0.07864064
000290 19 c4 60 bd b2 f7 0d 3b c5 4e c2 bd 4e d9 87 bd
       -0.054874513 0.002166253 -0.0948768 -0.066332445
0002a0 fd 40 b8 bd 6d 31 04 bb 5d 14 9f 3d b7 32 8b 3d
       -0.089967705 -0.0020171062 0.07767556 0.067967825
0002b0 fb 8a 09 3c 41 84 b2 bd 95 a5 4d 3d a5 56 f5 3c
       0.008394952 -0.08716632 0.05020674 0.029948542
0002c0 47 ad 6b bd da 13 bb bd 0d 54 e2 bc d7 a6 82 3c
       -0.057538297 -0.09134646 -0.02762797 0.015948696
0002d0 03 d5 85 bd 2d 3d 5a bc 7e db ca 3b 06 b6 3b 3d
       -0.065347694 -0.0133202495 0.0061907163 0.045827888
0002e0 98 21 ce 3c a0 88 b8 3b 20 ed 80 bd bb 69 71 3d
       0.025162503 0.0056315213 -0.06295228 0.058938723
0002f0 4c c6 4d bd b0 01 9e 3c 8b 50 90 3a a9 b9 eb 3c
       -0.05023794 0.019287914 0.0011010332 0.028775053
000300 17 05 11 3d 1f 3a 2c 3c a1 90 ce bc ff e1 85 bc
       0.035405245 0.010511904 -0.025215449 -0.016343115
000310 2c ee 92 bd 4a e3 0b bd dc 5b 17 bd b9 6c 64 bd
       -0.07174334 -0.034152307 -0.03695284 -0.05576775
000320 d5 8c 8a bd 64 fc b3 3c 02 f0 82 3d df 65 d1 bc
       -0.06765143 0.021970935 0.06393434 -0.025561271
000330 96 fe 7b 3b 33 8b 64 3c 93 64 84 ba 37 b6 68 bc
       0.0038451306 0.013949203 -0.0010100774 -0.0142036
000340 37 d1 fc ba 74 b2 bb 3c f6 d0 b7 bc 2d 92 ca bd
       -0.0019288425 0.022912242 -0.022438508 -0.09891162
000350 2c 22 6b bd ff 52 37 3d d2 fc 84 bd 2e 94 5c 3d
       -0.057405636 0.044756886 -0.06493534 0.053852253
000360 29 4b c0 bb 3f 8c 0c bd 2e e7 ed 3c 71 40 a1 bd
       -0.005868335 -0.034313437 0.0290409 -0.07873619
000370 87 ed 83 3d 94 51 43 bc 14 76 82 bd af ec 0d bd
       0.06441789 -0.011921305 -0.06370178 -0.034649547
000380 e1 60 b6 3c 08 b2 73 bc d5 39 84 bd b3 f4 07 3d
       0.022262992 -0.014873989 -0.06456343 0.033192348
000390 10 21 82 3c a1 e1 b6 bd e6 c6 55 3c c0 c4 8b bc
       0.015884906 -0.08929754 0.013047909 -0.017061591
0003a0 cb de 99 bd 0f 75 80 bd 93 dc d8 bd 3c 99 95 bd
       -0.075131975 -0.06272327 -0.10588946 -0.07304618
0003b0 e0 dc 83 bd 77 86 88 3c 64 5e 34 bd 9e d2 a5 3d
       -0.06438613 0.01666568 -0.04403533 0.08096813
0003c0 d2 2b cf bd f8 6c 36 bd 95 dd 7b bc a3 d0 59 3d
       -0.1011578 -0.044537514 -0.0153726535 0.053177487
0003d0 c8 f8 3d 3c 7a f2 ac bd d7 e9 6e bc 02 7e be ba
       0.011594959 -0.08444686 -0.014582119 -0.0014533403
0003e0 e4 ec 97 3c a9 f5 9b 3d ee 38 4c 3d 3c 5b a8 bd
       0.018545575 0.07615215 0.04985898 -0.082205266
0003f0 19 bc 5e bd ae 81 40 bd 40 00 d8 bc 52 54 5b 3d
       -0.054378603 -0.046998672 -0.026367307 0.05354721

lstm.weight_ih_l1 f4 [512, 128]
000000 6a 79 00 3c ff 38 1b 3d 1b b3 53 bd 6e 8b 17 3d
       0.007841447 0.037896153 -0.05168448 0.036998205
000010 b8 4b 43 3d e9 6d 0b bd 82 43 fa 3c 39 9b ac 3c
       0.047679633 -0.034040365 0.030549768 0.02107011
000020 1e 01 57 bd 22 ba 86 3d 03 9e ee bb 4e 7d 0f 3d
       -0.0524913 0.06578471 -0.00728202 0.03503161
000030 0a 29 b0 bb c8 31 f1 3b 3b 94 78 bc b5 ac ab bd
       -0.005375986 0.0073606707 -0.01517206 -0.083825506
000040 3d be 8b bd ef a2 e5 3c aa 7f 91 bd 01 35 af bd
       -0.068233944 0.028031794 -0.07104428 -0.085550316
000050 7d 36 b2 bd e6 3f 95 3b dc d4 fb 3b 4f 82 86 3d
       -0.08701799 0.0045547364 0.007685287 0.06567823
000060 70 56 4d 3d 5f 84 9a bc 39 f5 0e 3d 9a d8 0f bd
       0.05013126 -0.018861948 0.03490183 -0.035118677
000070 37 7f 4b 3d 25 89 4c 3c 45 4a bd 3d 1b e3 16 bd
       0.04968187 0.01248387 0.092426814 -0.03683768
000080 26 68 23 3d f0 90 66 3c d7 e4 40 3c d0 d7 02 bd
       0.039894246 0.014072642 0.01177331 -0.031944096
000090 e5 42 a0 3d a2 a2 e9 bc ad 0e 49 bd 31 68 83 3c
       0.07825259 -0.028519932 -0.04908626 0.016040893
0000a0 9d 69 3c bc b4 f9 c7 3d 44 f0 6a bd f9 9b 2d 3d
       -0.01149979 0.09764424 -0.05735804 0.042385075
0000b0 e9 62 9f 3c 66 09 47 3c 52 2e e3 bc 50 bf 50 3d
       0.019456344 0.012148237 -0.027732048 0.0509637
0000c0 32 1e f4 3c 04 2e 17 bd 67 c0 a0 bd f1 44 6b bc
       0.029799554 -0.03690912 -0.07849198 -0.014359699
0000d0 6e ba c7 3c 37 c3 4d bd 23 9b 9d 3c 05 0e 23 3d
       0.024380889 -0.050235 0.019239014 0.039808292
0000e0 e4 26 d5 bc f8 22 31 bc 7f a9 d7 3c d4 f1 2e 3c
       -0.026019521 -0.01081156 0.02632594 0.0106777735
0000f0 e2 3c 47 bd 4c 5a f9 bb 2b e8 35 bd 6e 47 54 bd
       -0.048642047 -0.007609641 -0.044410866 -0.051825933
000100 a6 c2 a0 bd d5 35 00 bd 9d 79 59 3d 65 32 94 bd
       -0.07849626 -0.03130134 0.053094495 -0.072361745
000110 a0 ac 0b bd bb 19 6b bd 48 94 53 bc d9 cd 97 bd
       -0.034100175 -0.057397585 -0.012913771 -0.07412309
000120 32 90 b8 bd 5e 19 a4 3d 98 7e 3b bd 11 b5 5c bc
       -0.09011878 0.08012651 -0.045775026 -0.013470904
000130 92 4f 32 3d 1b 19 6b 3d 1c 46 67 3d 2d 59 b6 3c
       0.043532915 0.05739699 0.056463346 0.02225932
000140 45 24 20 3d 34 0e 8d 3b 2c 04 31 bd f4 8e 0c 3d
       0.03909709 0.0043046717 -0.04321687 0.03431602
000150 c2 14 17 3c cc 3e f3 bc 60 a1 5b 3d 36 35 8f bd
       0.009221258 -0.02969303 0.053620696 -0.06992571
000160 63 0f 16 bd 93 5d d7 3c 55 bf 51 3d fd 0e 92 3d
       -0.036635768 0.026289737 0.05120786 0.07131765
000170 a8 6c 94 3d 45 62 88 3d 4f a1 13 bb 7b eb 92 bc
       0.07247287 0.066593684 -0.0022526567 -0.017934551
000180 ed be 96 3d 11 a4 a6 bd 66 b0 8b 3d 62 47 80 3d
       0.07360635 -0.08136762 0.06820755 0.06263615
000190 26 ec 87 bc b5 16 1f bd 23 e9 57 3c cf 91 9c bd
       -0.016592097 -0.038840014 0.013178143 -0.07644998
0001a0 37 d3 12 3d 2b 5b bb bc 76 e1 49 3d 43 11 df 3c
       0.03584596 -0.02287062 0.049287282 0.02722991
0001b0 dc 76 2a bc cb ba 84 bd 22 80 72 3d dd d2 2d bb
       -0.010404315 -0.064809404 0.05920423 -0.002652339
0001c0 fc 44 fc 3c c3 c8 8f 3a 16 74 99 bd 0c 83 6a bd
       0.030794613 0.0010969866 -0.07492845 -0.057253882
0001d0 a6 ee 3a 3d d1 20 6f 3d 6c fc 0a bd 94 4c 32 bd
       0.04563775 0.058380906 -0.033932135 -0.04353006
0001e0 73 08 89 3d a3 54 9f 3d 1f 83 29 3d 45 f0 34 3d
       0.06691065 0.07779815 0.041384812 0.04417445
0001f0 2c 2a ba bd a2 22 8e bd 72 3a 82 bd 6a cd 9e 3d
       -0.09090075 -0.069401994 -0.06358804 0.077540234
000200 5c 75 27 bc f2 b4 63 3d 20 5f c7 bc 8c c8 4a bd
       -0.010220852 0.055592485 -0.024337351 -0.049507663
000210 71 d8 b4 3c 46 a2 86 3d 21 86 b2 bd cf 96 81 3d
       0.022075864 0.0657392 -0.08716989 0.063275926
000220 74 df 83 bd 8c 0a 12 bc 6b 0b a2 bc 8b 2c 53 3d
       -0.06439105 -0.008913647 -0.019780835 0.05155615
000230 77 1c a0 bd 5a df 7a 3d 59 86 cc 3c e3 ba 19 3d
       -0.07817929 0.06124816 0.024966406 0.037531745
000240 43 82 5e bd 1a c7 77 3d ca c9 c7 bd cc a7 58 bc
       -0.054323446 0.060492612 -0.09755285 -0.0132236
000250 fd 35 05 bd 4a a6 5c bd 81 9b 52 bb 6c 23 37 bd
       -0.03252219 -0.053869523 -0.0032136145 -0.044711515
000260 6f a8 e8 3c 2c 68 d6 3c 20 eb b1 bd 84 1b 90 bd
       0.028400628 0.02617272 -0.08687425 -0.07036498
000270 ff 3f 82 3d b6 43 31 bd 74 0a 31 bd 3d f0 9d 3d
       0.063598625 -0.043277465 -0.04322286 0.077118374
000280 88 bd 4d 3d e5 08 32 3d e7 00 a8 3d 90 11 0b 3d
       0.05022958 0.043465514 0.08203297 0.033952296
000290 81 79 8c bd bc 6e 79 3d 27 55 8e 3d 25 6c 93 3d
       -0.068591125 0.06089662 0.06949835 0.07198361
0002a0 f8 7d 39 bd 21 1c 8d bd c3 04 52 3d dc 95 2e bd
       -0.04528615 -0.06890131 0.051274072 -0.042623386
0002b0 44 f7 9f bc 5e 59 46 bc a2 b7 ca 3d 93 d3 b4 bd
       -0.019527085 -0.012106268 0.098983064 -0.08829417
0002c0 1e 25 a6 3d 29 b6 2a bc da 52 87 bd 4e 37 bb 3c
       0.08112548 -0.010419407 -0.066075996 0.02285352
0002d0 79 c2 13 3d e7 28 cd bd 62 35 6a bb 87 fe 11 3c
       0.036074135 -0.10017567 -0.0035737385 0.008910782
0002e0 0e 99 02 3c e9 90 35 bd da d8 8d bd c4 9e 0f 3d
       0.007971061 -0.04432765 -0.06926127 0.03506352
0002f0 04 de cf bc e7 b0 9d 3d ce 82 a3 bc f8 0d 1a 3c
       -0.02537442 0.07699757 -0.019959833 0.0094027445
000300 6c 92 7c bd 36 57 c3 3d 89 5b 22 3d 87 53 bf bb
       -0.061663076 0.095381185 0.039638076 -0.0058388147
000310 2f ae 7f 3a 93 02 81 bc 6f d4 72 bd 28 96 04 bd
       0.00097534334 -0.015748298 -0.059284624 -0.032369763
000320 ff 09 e6 bc 52 4e 29 3b ff 0c ad bd f8 3e 3f bd
       -0.028080938 0.0025834036 -0.084497444 -0.04669091
000330 51 eb a6 bd b7 4e 4c 3d 20 cc fb ba ad bb 33 bd
       -0.08150352 0.049879756 -0.0019210614 -0.043880153
000340 28 32 ce bb f4 9d c5 bc d1 95 19 3d 36 a1 b4 bd
       -0.0062926 -0.02412317 0.03749639 -0.08819811
000350 d2 b1 ed bb 7a cf d4 bb 81 99 e1 bb ef 92 b1 3c
       -0.007253864 -0.0064944597 -0.006884754 0.021676509
000360 fa f5 84 3b ee 91 71 bd 7e 04 49 3d a1 09 95 3d
       0.004057643 -0.05897706 0.04907655 0.07277227
000370 f9 e3 60 3c f5 90 df 3c 1e 51 88 3c ed 1e fd 3c
       0.013726228 0.0272908 0.016640242 0.030898536
000380 80 df da 3b 9a 04 20 3d 63 97 9c 3d 9e b7 8e bd
       0.0066794753 0.03906689 0.07646062 -0.06968616
000390 bc b1 b4 bd 5a 6e e8 bc 32 31 38 3d 88 61 17 3d
       -0.08822963 -0.028372932 0.04496879 0.036958247
0003a0 6b 13 8f 3d fb 7f 20 3d ef c9 1c 3b 50 50 d2 bb
       0.069861256 0.03918455 0.0023924073 -0.0064182654
0003b0 d4 e0 a1 3d c6 14 cc 3c 38 3c a6 3c bf 78 8c 3d
       0.07904211 0.02491225 0.020292386 0.06858968
0003c0 f0 4a 6c bd 5c 9f 7b bd 50 e0 29 3d a6 42 fd bc
       -0.057688653 -0.061431274 0.041473687 -0.03091557
0003d0 d5 6c 1e 3d 38 a0 88 3c bd ee 71 3d 7c ba 67 bd
       0.03867801 0.01667796 0.05906557 -0.05657433
0003e0 1b 52 25 3d 88 54 e4 3c 26 40 83 bd 18 40 63 bd
       0.040361505 0.027872339 -0.0640872 -0.055481046
0003f0 75 4c ea bc e0 46 ac 3c eb ce d7 3b be 0e 8f 3d
       -0.02860091 0.02102989 0.006585946 0.06985234

lstm.weight_hh_l1 f4 [512, 128]
000000 4b c9 24 bd 28 5b 97 bd 09 2d c5 ba 69 2f 61 3d
       -0.04023103 -0.073904335 -0.0015043329 0.054976854
000010 a3 9c 77 3d 00 d0 aa bc 30 ad 4f 3d 6c 5a 8b 3d
       0.060452115 -0.020851135 0.050702274 0.06804356
000020 89 26 6a bd 79 9a 26 3d ff 4c 4b bc 4d a2 6e 3d
       -0.057165656 0.04067466 -0.012408494 0.05826025
000030 8e 56 93 3d a6 df 86 3a 02 6e cb bb d1 c7 c4 bd
       0.07194243 0.0010290041 -0.0062081823 -0.096084245
000040 82 21 d2 3b 6d eb e3 bc df f5 89 bd 0e 41 83 3d
       0.006412686 -0.02782222 -0.06736349 0.064088926
000050 b9 7a ef bc b6 56 cc 3c 17 48 9a bc 44 18 0c 3d
       -0.029233323 0.02494369 -0.018833203 0.03420283
000060 75 1f 04 3d 3f 40 87 3d 81 4b 63 3d 10 f1 34 bb
       0.032256562 0.06604051 0.055491928 -0.0027609505
000070 f3 1e 88 bd d6 a4 87 3c 9b c9 87 bd a6 5e 01 3d
       -0.06646528 0.016558092 -0.0663025 0.031584404
000080 da cc 45 3c a1 61 7d 3d da 73 10 bd 02 90 b2 3c
       0.012072766 0.061860684 -0.035266735 0.021797184
000090 da 7f 3a 3d b5 cc 52 bd 01 2c 44 bd 03 d2 9f ba
       0.045532085 -0.051464755 -0.047893528 -0.0012193326
0000a0 78 e6 32 bc 57 a5 6c bd 8f 90 e0 bc 91 a1 26 bd
       -0.010919206 -0.057774868 -0.02741268 -0.040681425
0000b0 a1 67 93 bb 23 f1 53 3c c9 a6 8a bd 78 97 9c 3c
       -0.0044984375 0.012935909 -0.06770093 0.019115195
0000c0 0c 66 24 3d 39 e9 b6 3c f5 9f df 3c 41 33 c9 3d
       0.040136382 0.022328006 0.027297953 0.09824229
0000d0 ae ff 4f bd 54 0a 9a 3c 2a 53 47 3c b6 6b 52 bd
       -0.050780945 0.018803753 0.012165824 -0.051372252
0000e0 75 05 ae bd 1b 61 0c 3d e1 5c 0f 3d 60 5f c2 3b
       -0.084971346 0.034272294 0.035000686 0.0059317797
0000f0 86 5a 1d 3d 4c 9b a1 bd 7a 03 47 bd 8e 50 56 3d
       0.038416408 -0.07890949 -0.0485873 0.052322917
000100 52 98 a7 3d d8 cd 5f bd fa 87 61 3d 35 44 0d bd
       0.0818335 -0.054639667 0.055061318 -0.034488875
000110 a5 07 a0 3c 86 1d cf 3c ee 60 cf 3b 32 d7 26 3d
       0.019534895 0.025282633 0.0063286936 0.04073257
000120 de 71 6c 3c 56 bc ce bc 24 08 48 bd 24 4a 9d bc
       0.014431445 -0.02523629 -0.04883589 -0.019200392
000130 42 cd 91 3d c9 fc 03 bd 53 11 40 bd aa b6 8c bc
       0.07119228 -0.032223497 -0.04689152 -0.017176945
000140 87 63 88 3c 57 6e 51 3d 41 c0 0b bc b6 54 8d bb
       0.01664902 0.05113062 -0.008529724 -0.004313077
000150 23 69 62 bd 3a 77 5e bd 51 06 02 bd 49 18 80 3d
       -0.055276047 -0.054312922 -0.031744305 0.06254632
000160 e6 cf 49 bd 96 3d a3 bc 5a 90 90 3d 27 bf 0f bd
       -0.049270533 -0.019926827 0.07058783 -0.035094406
000170 50 8c 44 3d b5 8e 1c bd 38 b7 bf bd 1e 7c ee 3c
       0.047985375 -0.038222034 -0.09361118 0.029111918
000180 fb 36 71 3d bd 83 96 3d 0f bc ef bc 6f ab 83 bc
       0.058890324 0.07349346 -0.029264478 -0.016072957
000190 93 30 b7 3a 2b 06 90 bd 28 cc 72 3c 43 eb 62 3d
       0.0013976268 -0.070324264 0.014819182 0.055400144
0001a0 1b d4 0d bd 7b 84 0c bc cd c3 5a bd 9f 5a 91 3d
       -0.034626108 -0.008576508 -0.053409386 0.07097363
0001b0 c3 a9 db bc 94 36 a0 3d 0a b2 9c 3d 01 24 2c bd
       -0.026814347 0.0782291 0.07651146 -0.042026524
0001c0 9a 40 6b bd 79 9b 44 3d 6f 61 95 bd 7f a8 91 3d
       -0.057434656 0.047999833 -0.072939746 0.07112216
0001d0 3d 76 fe bc e0 78 92 3d 8a c4 79 3d bd 67 ab 3c
       -0.03106224 0.07151961 0.06097845 0.02092349
0001e0 74 1f 38 3d c1 d5 82 bd b4 1d 1e 3d fa f9 1b 3d
       0.04495187 -0.063884266 0.038602546 0.038080193
0001f0 a5 d0 96 bc 8d 26 82 3c 44 ba a2 bc a5 aa 27 3d
       -0.018410036 0.015887523 -0.019864209 0.040934224
000200 f3 2f ac bd cf 66 1f 3c a3 a7 4f 3d 42 c3 26 3d
       -0.08407583 0.009729101 0.05069698 0.040713556
000210 1d a4 65 bb ff a2 94 3d 42 be 51 3d 2e 51 9c 3d
       -0.0035040446 0.072576515 0.051206835 0.07632671
000220 7c 5c 85 bd 9b 09 53 bd 92 26 bc bd 7b 07 45 bd
       -0.065117806 -0.051522832 -0.09187044 -0.048102837
000230 36 77 20 3d be f6 8c bd 28 d7 f4 bc b0 61 4a 3b
       0.03917619 -0.06883 -0.02988775 0.003088098
000240 44 c8 4d 3d 47 80 bc 3c f0 10 67 3d 7e 46 f3 3c
       0.050239816 0.023010386 0.056412637 0.0296967
000250 ac a9 ee bc 27 bb f5 3c cd 29 47 bd 56 1a ab 3d
       -0.02913364 0.029996468 -0.04862385 0.083546326
000260 db 49 39 bd 23 ee 29 3d 31 d7 23 bd 85 c7 c0 3d
       -0.04523645 0.04148687 -0.040000144 0.09413055
000270 59 af 18 3d 02 06 3c bc e8 1b 84 3b d9 48 f7 3c
       0.0372766 -0.011476042 0.004031647 0.030186104
000280 4b 03 ba bd f3 f8 55 3d f6 ed aa 3c 41 6f 9f 3d
       -0.09082659 0.05223937 0.020865422 0.07784892
000290 5c eb 97 3d 0e 45 eb 3c 2f f1 4f 3d 66 7b 0b bd
       0.07417938 0.028719451 0.05076712 -0.03405323
0002a0 8c b4 7f bd fb 8c c2 bd 8e a3 8e 3c ec 50 1b 3d
       -0.062428042 -0.09499546 0.017411973 0.03791897
0002b0 53 3b 71 bd 6b de 78 3d 2b a6 12 3c ec ab 55 3d
       -0.058894467 0.06075899 0.00895075 0.05216591
0002c0 9c fc ba bc 4c ae 92 3d 3e 92 7b bd b9 fb 7e 3d
       -0.022825532 0.07162151 -0.061418764 0.06225178
0002d0 d0 82 6b 3b 23 4b 49 3d 84 26 3f bc f4 fa bb bc
       0.0035936125 0.04914392 -0.011666898 -0.022946812
0002e0 b5 bd 23 bd f1 fb fc bc b5 02 0b 3c 78 02 76 bd
       -0.03997584 -0.030881854 0.008484532 -0.060060948
0002f0 4b 22 c2 bd c8 ff a3 3c 22 e5 94 3d e0 d4 4f bb
       -0.09479197 0.020019427 0.07270266 -0.0031712577
000300 03 0c e2 bc 25 06 3b 3d f2 f0 a2 bd 0c a7 29 3c
       -0.027593618 0.045660157 -0.07956113 0.0103547685
000310 0f 20 1b 3d 94 93 6c bc 8b 2c 15 3d cd 70 85 bd
       0.03787237 -0.014439482 0.036419433 -0.06515656
000320 a8 dd 56 3d 07 c6 19 3c f4 af 27 3d ee f3 00 3d
       0.05245748 0.009385592 0.040939286 0.03148263
000330 ee fe ad 3d ca 8a 65 bd bf d2 1e 3d 4e db 5a 3d
       0.084958896 -0.056040563 0.038775202 0.0534318
000340 01 56 04 bd 36 0d 4c bc 81 85 9a 3d 2d ef 09 3d
       -0.032308582 -0.012454322 0.07544995 0.03367536
000350 97 41 48 bd c4 b9 38 bd bd 77 8d bd c4 10 31 3d
       -0.048890676 -0.045099035 -0.06907604 0.04322888
000360 94 89 8e 3c ab 23 d0 3b 5b 84 aa 3b 1c ef b1 3c
       0.017399587 0.006351908 0.0052037663 0.021720462
000370 4b 61 a7 3c aa be f6 bc f1 04 c3 3c c3 34 0d bd
       0.020432135 -0.030120213 0.023806067 -0.034474146
000380 d6 8a c3 bd 50 74 e8 3c b8 7d 0b bd 30 b0 bf 3c
       -0.09547965 0.028375775 -0.03405544 0.023399442
000390 59 a1 06 bd 0b 1c 9e 3d d6 5d 5e bd e6 2d 88 bc
       -0.032868717 0.077201925 -0.054288708 -0.016623449
0003a0 db d1 85 3d ce 52 9a bd c3 75 7b 3d fb 64 cd bb
       0.065341674 -0.07535325 0.061391603 -0.0062681413
0003b0 4e 2c 6e 3d cf d5 d5 3c 82 5b 25 bd 7f f4 56 bd
       0.05814772 0.026102928 -0.04037047 -0.052479263
0003c0 e6 46 9f bd 3f 4f a3 3b 5f 0e ad 3a 16 0f 57 3d
       -0.07777195 0.004983812 0.0013203135 0.05250462
0003d0 94 26 8f 3d 50 ca 40 3d 45 6d 3a bd 88 47 8d bc
       0.0698978 0.04706794 -0.045514364 -0.017246023
0003e0 b1 ce 65 3a b1 80 91 bc fa 47 96 3d 85 1b 4b 3d
       0.0008766456 -0.01776156 0.07337947 0.04958679
0003f0 d7 ee bd bd f9 52 f7 3c 39 7e b8 3d 81 66 62 bb
       -0.09274071 0.030190932 0.0900845 -0.003454596

lstm.bias_ih_l1 f4 [512]
000000 1a 91 56 bd f5 32 07 bd ac b3 84 bc 24 bf 58 3c
       -0.052384473 -0.03300758 -0.016198955 0.013229165
000010 ab 67 c2 bb 35 1b 8b 3d 7f 1f ab 3b 73 6d c0 3c
       -0.0059327683 0.06792299 0.0052222605 0.02348969
000020 b2 c4 cc bc 1d a1 24 3d bc fb 0a 3b 53 30 fe bc
       -0.024996135 0.040192712 0.0021207174 -0.031028902
000030 9b b6 88 3d 10 92 87 bd aa 94 c6 3d 60 59 53 bd
       0.06675454 -0.06619656 0.09696324 -0.051598907
000040 ac 27 c7 bb 2f 99 1d 3d a5 2d 4d bd e0 3d 89 3d
       -0.0060777273 0.038476165 -0.05009236 0.06701255
000050 fc 23 14 bd 42 22 96 bc 22 b8 aa 3d 53 b8 46 3d
       -0.03616713 -0.018326882 0.08335902 0.04851563
000060 f7 fd 4c bd aa 5c 5d 3d a2 a8 2d bc d8 1f 48 bd
       -0.050046887 0.05404345 -0.010599287 -0.048858494
000070 4a fa 3b bd bf 37 8d bc ae 7e fa bc e4 4c 2c bd
       -0.04589299 -0.017238496 -0.030577984 -0.042065516
000080 47 16 71 bd 55 da a0 bd 58 c3 ae bb 37 4b 40 3d
       -0.058859136 -0.078541435 -0.0053333454 0.04694673
000090 39 f5 a2 3b e3 45 82 3d 53 2e be bb c6 42 a9 3d
       0.0049730805 0.06360986 -0.005803862 0.08264689
0000a0 09 48 88 bd 5d 8b 95 bd 5f 99 fe 3c b4 41 8c 3c
       -0.066543646 -0.07301972 0.031078992 0.017121173
0000b0 dc b4 78 3d 7d fb 2f bd fe fc 85 bd 7a a5 d2 3c
       0.060719356 -0.042964447 -0.06542395 0.025713671
0000c0 f3 9d 9f bc a2 47 f0 3c 87 df bf bd 4b 71 37 bd
       -0.019484496 0.029331032 -0.09368806 -0.04478578
0000d0 af 24 18 3c f1 90 7b 3d 09 9b aa bd f4 01 91 3c
       0.00928609 0.061417524 -0.08330352 0.017701127
0000e0 03 52 96 3d 3f 32 46 3d 05 00 7c 3d 70 c4 47 3d
       0.07339861 0.048387762 0.061523456 0.04877132
0000f0 16 07 67 3d 94 04 c7 3c 71 c4 1c 3d f6 8d 62 3d
       0.056403242 0.024294175 0.03827328 0.055311166
000100 0f 02 fd bc b5 45 b8 3d 2a 3e a6 3d b1 9b c7 3b
       -0.03088477 0.089976706 0.081173256 0.006091558
000110 f6 38 5a bc 62 e5 58 bd 54 eb 05 3d e8 3b 23 3c
       -0.013319245 -0.05295313 0.03269513 0.009963013
000120 b1 b5 74 bd 9f 14 3d 3d 64 9d 12 3c bb c0 61 bd
       -0.059743587 0.046162244 0.008948658 -0.055115443
000130 1b 21 ad 3d b7 86 83 3d 41 5e 85 b9 dc de 78 bd
       0.0845358 0.06422179 -0.0002543796 -0.06075941
000140 08 cc 8c 3d 26 10 8a 3d 79 d5 49 bd fb 57 bb 3d
       0.068748534 0.06741361 -0.04927585 0.0914764
000150 0a bc 0b bd 6b 88 a0 bd 5d bb 1c bd 3c 02 93 3d
       -0.034114875 -0.0783852 -0.03826462 0.071781605
000160 25 fb af 3c 52 77 9c 3d d9 28 91 3c 8a e4 8e 3b
       0.02148206 0.07639946 0.017719673 0.00436074
000170 dc 9a 8a 3d 73 23 c9 bd ad a7 74 bd 4a e7 b3 3c
       0.06767818 -0.098212145 -0.05973022 0.021960873
000180 9e 57 9d 3d 46 b8 87 bc 6c 2e cc 3a 11 22 60 bd
       0.07682727 -0.01656736 0.00155778 -0.05471999
000190 45 8d 47 ba 03 44 ab bd 83 b2 5b bd f9 fb 3e bc
       -0.00076122984 -0.083625816 -0.05363704 -0.011656755
0001a0 11 33 99 bc ee 07 98 3c ad 99 0a 3b 7f 9c b5 bd
       -0.018701108 0.018558469 0.0021148727 -0.0886774
0001b0 93 8e 71 3d a2 5e 6a 3d db 5b e7 bc f2 5f 8a bd
       0.05897386 0.057219155 -0.028242042 -0.06756581
0001c0 2a be 88 3c e2 9b 35 3d 23 3f cf 3c f6 d9 84 3d
       0.01669224 0.044338115 0.02529866 0.06486885
0001d0 84 17 cb bd 74 e6 e4 3c db 28 6d bd d4 a7 7a bd
       -0.099165946 0.02794192 -0.05790029 -0.06119521
0001e0 db 86 9a 3d 75 a7 4b bd a3 7f ea 3b 7e 58 b8 bd
       0.07545253 -0.049720246 0.0071563288 -0.090012535
0001f0 c8 1b 93 3d 7d 53 0f bc d0 a4 c3 3d 58 d5 d8 bd
       0.07183033 -0.0087479325 0.0955292 -0.10587567
000200 2b 28 2b 3d ea be 2e 3d 8d 38 b5 bd 74 3a 54 3d
       0.041786354 0.04266254 -0.08848677 0.051813558
000210 4f 29 35 bd 9e f6 18 3d 7b 6e 87 bd f8 21 fe 3b
       -0.044228848 0.037344567 -0.06612869 0.0077555142
000220 3f f7 01 3d a3 ef 21 3d bd 2d 86 bc 69 25 c7 3c
       0.031729933 0.039535176 -0.016379232 0.02430983
000230 63 a4 20 bd 6a 1f 94 bd e2 57 7d bc f4 23 48 3d
       -0.03921927 -0.07232554 -0.015462847 0.048862413
000240 c0 a7 c7 bd dd 88 96 bd a9 0e 86 bd 54 7f 97 3b
       -0.09748793 -0.07350323 -0.06545765 0.004623333
000250 a9 be 2a 3d a5 18 e9 3a b8 08 89 3c bd 44 cc bc
       0.041685734 0.0017783834 0.01672779 -0.02493512
000260 16 f8 7c bd 10 ef d1 bd 7b a9 1d 3d 9c ec aa bd
       -0.06176003 -0.10250676 0.038491707 -0.08345911
000270 0f e4 59 3b 43 dd 84 3d 53 61 2b 3d 14 ab 71 3d
       0.0033247506 0.06487515 0.041840862 0.059001043
000280 b7 10 03 3d f4 3d 56 3d e8 05 a2 3c 93 41 fd 3c
       0.031998362 0.052305177 0.019778207 0.030915057
000290 c3 27 66 3d f8 2a 38 3d a1 91 a8 3d af 6f 52 3d
       0.056190263 0.044962853 0.082309015 0.05137604
0002a0 9a 3e 25 3d 0f 39 fa 3b 6d 51 bf bd 52 b9 3e bd
       0.040342905 0.0076361964 -0.093417026 -0.046563454
0002b0 41 79 87 bd 78 1e 21 3d 93 72 b4 bd d1 48 3c bd
       -0.06614924 0.039335698 -0.08810916 -0.04596788
0002c0 d6 e5 9e bc 56 de 4b 3d 73 24 9c 3c e5 d4 f7 3c
       -0.019396704 0.049772583 0.01906035 0.030252883
0002d0 c1 63 82 bd 98 bb cb bd 7e 3f e7 3c a2 0f b7 3c
       -0.06366683 -0.0994789 0.028228518 0.022346321
0002e0 5f 14 2d 3d 04 11 76 bd 82 99 63 3d 8e 20 6b bd
       0.042255756 -0.06007482 0.05556632 -0.057404093
0002f0 12 43 c3 bc 19 91 1b 3d a3 6a 5a 3d 5f 55 0c 3d
       -0.023835693 0.037980173 0.053324353 0.034261104
000300 8b ab d5 bd e6 57 6a bd 41 5a 5e bd 65 81 9a 3d
       -0.1043311 -0.057212733 -0.05428529 0.07544211
000310 4a aa 28 3d 01 91 a1 bd 0b 26 f0 bc 80 a5 97 bc
       0.041178025 -0.078889854 -0.029315015 -0.018511534
000320 ff d6 22 3d 16 7b 34 3d 8f d9 40 3d dc 4b b4 3b
       0.039755818 0.044062696 0.04708248 0.005502207
000330 3f ad 2c 3c 58 7a 04 3d db 5b 8f 3d 56 3f 66 bc
       0.010539352 0.03234324 0.06999942 -0.014053186
000340 75 e3 52 bd 06 eb 49 bd 79 0e 72 bd 81 ed 0c 3d
       -0.05148645 -0.0492964 -0.059095833 0.03440619
000350 d1 a7 44 bd 4f da 08 3d 7c 2e a2 3c 32 93 b9 3c
       -0.048011605 0.03341132 0.019797556 0.022653196
000360 7a 1a 7f 3d c5 19 01 bd 50 a0 7e bd ac 27 4b bd
       0.06228111 -0.031518716 -0.062164605 -0.04959838
000370 d3 fb 4c bd 99 d9 ba bc 6c 83 e1 3b 1e 51 ca bc
       -0.050044846 -0.022808837 0.006882122 -0.024696883
000380 92 1f c1 bc 4f fb ed bc a0 88 c6 3a a9 e1 5b ba
       -0.023574624 -0.029050497 0.0015146919 -0.0008387813
000390 99 f8 fb 3c 5e 5f 87 3d 49 7d 9d 3c 51 a8 49 bd
       0.030758189 0.06609987 0.01922478 -0.049232785
0003a0 d8 8b fa 3c 68 2c 4e bd 75 e5 88 bd dc 44 ca bd
       0.03058426 -0.050335318 -0.066843905 -0.09876415
0003b0 7c b7 fd bb 9e d1 da bb ba 73 7d 3c b1 44 67 bd
       -0.0077428203 -0.0066778203 0.015469486 -0.056461994
0003c0 eb d3 61 bd df ee cb 3c e3 6d 52 bc 38 0e 2e bd
       -0.05513374 0.024894176 -0.012843582 -0.04249403
0003d0 f1 1b 51 bd 3f 59 61 bd 45 3f 7e bb 30 b0 60 3c
       -0.051052038 -0.055016752 -0.0038795036 0.013713881
0003e0 63 af e3 3c ad 2b 88 bd eb cc b4 3a bc e2 2d 3d
       0.027793592 -0.066489555 0.001379398 0.04245256
0003f0 91 79 da bb b3 88 9f bd f5 3b 90 3d 2a 5e 80 bd
       -0.006667324 -0.07789745 0.07042686 -0.0626796
