backend/ml/models/best_model_15m.pt (torch, 870389 bytes, 10 tensors)

lstm.weight_ih_l0 f4 [512, 34]
0	0x3dd8e206	0.105899855
1	0x3dac8931	0.08424605
2	0x3e184b62	0.14872506
3	0x3dd699a8	0.10478526
4	0xbd51f7a4	-0.05126156
5	0xbdc00dd5	-0.09377638
6	0x3d651be0	0.055934787
7	0xbd8259a2	-0.06364752
8	0x3e91f152	0.28504425
9	0x3c80d101	0.01572466
10	0xbdd3fff8	-0.103515565
11	0x3ddc38bc	0.10753009
12	0xbe264d19	-0.16240348
13	0x3e18e65e	0.14931628
14	0x3d3740f2	0.04473967
15	0x3e063cff	0.13109206
16	0x3e182a61	0.14859916
17	0x3d4ae1a9	0.049531613
18	0x3e1a5daf	0.150748
19	0xbbfb63a3	-0.0076717897
20	0x3ca80f89	0.02051522
21	0xbd984b64	-0.074362546
22	0xbd61ee53	-0.055158924
23	0x3dd065cd	0.10175667
24	0x3dce70b9	0.10080094
25	0x3e23144e	0.15925714
26	0xbd56c161	-0.052430514
27	0x3d05e91e	0.03269302
28	0xbbe067a2	-0.0068482915
29	0x3ddc20e2	0.107484594
30	0x3db3063f	0.08741426
31	0x3e02f38d	0.1278822
32	0x3d4f9eb3	0.050688457
33	0xbab4e03e	-0.001379974
34	0x3d77b819	0.060478304
35	0x3e3e987a	0.18612853
36	0x3dd5003f	0.104004376
37	0x3e2b4a59	0.1672758
38	0x3da24d34	0.079248816
39	0x3ca4f3fb	0.02013587
40	0xbb66b5b4	-0.0035203518
41	0xbe3557b0	-0.17709231
42	0x3dd4b875	0.10386745
43	0x3d50607d	0.05087327
44	0x3ec0b444	0.37637532
45	0xbde8d98c	-0.11369619
46	0x3e0b98ac	0.13632458
47	0x3e42b9c0	0.1901617
48	0x3e258902	0.16165546
49	0x3e46f0b9	0.19427766
50	0x3e63906d	0.22223063
51	0x3dd73147	0.10507446
52	0x3e0a21e4	0.13489491
53	0xbd193692	-0.037405558
54	0xbdbb07f3	-0.091323756
55	0x3d31723d	0.043321837
56	0xbe293328	-0.16523421
57	0x3d7ef21c	0.062242612
58	0x3d3a47df	0.045478698
59	0x3e1424d6	0.14467177
60	0xbd6c94a0	-0.057758927
61	0xbd84743c	-0.064674824
62	0xbe333b09	-0.17502989
63	0x3d974cba	0.07387681
64	0x3df19858	0.117966354
65	0x3e2bc14c	0.16772956
66	0xbdc0a386	-0.094061896
67	0xbc961151	-0.018318804
68	0x3cab3a43	0.020901805
69	0x3d95f86d	0.07322774
70	0x3d8158ec	0.063157886
71	0x3d99ae7b	0.07503983
72	0x3d526391	0.051364485
73	0x3d012e94	0.03153856
74	0x3db8c9b4	0.09022847
75	0x3def1b64	0.11675146
76	0xbd876780	-0.06611538
77	0x3d83e246	0.064396426
78	0x3d096c2d	0.03355043
79	0x3db537be	0.088485226
80	0x3cd0107a	0.025398482
81	0x3c92aaef	0.017903773
82	0x3db9bb7c	0.09068963
83	0x3dc49048	0.09597832
84	0x3d8db702	0.069196716
85	0x3d2d230c	0.04226975
86	0x3d85528e	0.06509887
87	0xbb29b8a3	-0.0025897406
88	0xbbad7ace	-0.0052941805
89	0xbc95ec17	-0.018301053
90	0x3d90af1e	0.07064651
91	0x3c94474f	0.018100409
92	0x3da98df8	0.082790315
93	0x3d6aea91	0.057352606
94	0x3dd7147d	0.10501955
95	0x3dcb5f3c	0.09930274
96	0xbc50bf45	-0.012740915
97	0x3d9d24f8	0.07673067
98	0x3d3195ca	0.04335574
99	0x3d1f24bd	0.038853396
100	0x3e06eecb	0.1317703
101	0xbda47276	-0.08029644
102	0x3d01ab8e	0.031657748
103	0xbd55305d	-0.052048076
104	0x3cdede64	0.027205653
105	0xbd6d6a71	-0.05796284
106	0x3aee13d8	0.0018163873
107	0xbe26906a	-0.16266027
108	0x3ce5d2ef	0.028054683
109	0x3ce871d9	0.0283746
110	0xbe0973e5	-0.13423117
111	0x3e69f202	0.22846225
112	0xbd651065	-0.05592384
113	0xbdd4ba8b	-0.10387143
114	0xbe2941e9	-0.16529049
115	0x3cdc0f0a	0.02686264
116	0x3d7b3d1f	0.061337586
117	0x3d50c72b	0.05097119
118	0x3d982c3f	0.07430314
119	0x3c5cdfef	0.013481124
120	0x3d339444	0.04384257
121	0x3d8fbf60	0.07018924
122	0x3d974b50	0.073874116
123	0x3d0b5c36	0.034023486
124	0xbd94bf5b	-0.07263061
125	0xbd15f936	-0.03661462
126	0x3d664025	0.056213517
127	0xbd57a87b	-0.05265091
128	0xbe4032a1	-0.18769313
129	0x3d4debd6	0.05027374
130	0x3d21256d	0.039342333
131	0xbd77202c	-0.060333416
132	0xbb34909e	-0.002755202
133	0x3d852d3c	0.065027684
134	0xbe2e8be5	-0.17045553
135	0x3cb40fab	0.021980127
136	0x3bd3ed39	0.006467488
137	0x3a353f4f	0.0006914036
138	0x3d016c89	0.031597648
139	0xbc167d7e	-0.009185193
140	0x3dd6e489	0.10492808
141	0x3e2c2311	0.16810252
142	0x3e1e782c	0.1547553
143	0x3e7fee4b	0.24993245
144	0x3bfe1984	0.0077545065
145	0x3dbf5e85	0.093442
146	0xbdb6c633	-0.08924522
147	0x3e4196e3	0.18905215
148	0x3dbd470d	0.092420675
149	0x3d026d0c	0.031842276
150	0xbd8acae2	-0.06776978
151	0xbd097a63	-0.033563983
152	0x3c3c37c7	0.011487908
153	0xbd80dafd	-0.06291769
154	0x3cf4b41c	0.02987104
155	0xbd79b706	-0.06096556
156	0xbc9af73f	-0.018916724
157	0x3e1afa6a	0.15134588
158	0x3d4ddb14	0.050257757
159	0xbcc21e11	-0.023695977
160	0xbd6816ae	-0.056662254
161	0xbddc2983	-0.10750105
162	0x3e671dbc	0.22569937
163	0x3dc739c8	0.09727818
164	0x3e378b5c	0.17924255
165	0x3cf0c598	0.029391095
166	0xbc9af959	-0.018917726
167	0x3ca389bf	0.019963143
168	0x3e161f9c	0.14660496
169	0x3e1d8a33	0.1538475
170	0xbd5287af	-0.05139893
171	0x3c3deee9	0.011592605
172	0xbd89a4db	-0.06720897
173	0xbc85b5ff	-0.016322134
174	0x3da092a9	0.07840473
175	0x3d2fc086	0.042908214
176	0x3dcc4c62	0.09975506
177	0x3e30060a	0.17189804
178	0x3d9e85c8	0.077403605
179	0xbda15f70	-0.078795314
180	0x3e3de064	0.1854263
181	0x3da80717	0.08204477
182	0x3d68a2f2	0.05679602
183	0xbd1ad180	-0.03779745
184	0xbd82a099	-0.06378288
185	0x3c4ccdff	0.012500285
186	0xbd82b3b4	-0.06381932
187	0x3d673186	0.056443714
188	0xbd4f6335	-0.05063172
189	0x3cd76168	0.026291564
190	0xbb076bb6	-0.0020663566
191	0x3df73988	0.1207152
192	0x3da1a16c	0.07892117
193	0xbd522ee3	-0.051314246
194	0xbd3d837b	-0.046267968
195	0x3d35cc33	0.044384193
196	0x3def1073	0.11673059
197	0x3dabcc5e	0.08388589
198	0x3d0b6c1d	0.03403865
199	0xbb9a522e	-0.0047095036
200	0xba1220ca	-0.0005574344
201	0xbc3a39d7	-0.011366329
202	0x3cd33939	0.025784122
203	0x3e4f6408	0.20253003
204	0xbd55ed6f	-0.052228387
205	0xbd76f09f	-0.060288068
206	0xbd55d25c	-0.052202567
207	0xbd8324aa	-0.064034775
208	0xbd9b01db	-0.07568713
209	0xbe7e55f7	-0.2483748
210	0x3dd55247	0.10416084
211	0xbcd0affc	-0.02547454
212	0x3e2f5dfb	0.17125694
213	0x3e5ab477	0.21357904
214	0x3cb072b7	0.021539075
215	0xbd054eef	-0.03254598
216	0xbd55ba31	-0.05217952
217	0xbd481750	-0.048850358
218	0xbddbe2c5	-0.10736612
219	0xbdae92b8	-0.08524078
220	0xbdf82859	-0.12117071
221	0xbdd979a4	-0.10618904
222	0xbd9358c7	-0.07194667
223	0xbd836b56	-0.06416957
224	0xbd04417f	-0.032289024
225	0xbd660c1b	-0.05616389
226	0xbe06e0bb	-0.13171665
227	0xbd6917fb	-0.056907635
228	0xbdad0fca	-0.08450277
229	0xbdffdf19	-0.124937244
230	0xbd50e171	-0.050996248
231	0x3d111e0f	0.035429057
232	0x3c51b7f0	0.012800202
233	0xbdf57715	-0.11985604
234	0xbd802bb8	-0.06258339
235	0xbdf8adcb	-0.121425234
236	0xbc7fe623	-0.015618834
237	0xbd59c0bc	-0.05316232
238	0x3dcee03a	0.101013616
239	0x3d12c83a	0.035835482
240	0xbbb22d2b	-0.0054375133
241	0x3d5c0953	0.05371983
242	0xbe446752	-0.19180039
243	0xbc8a439a	-0.016877938
244	0x3e1b0b2c	0.1514098
245	0x3e1ed815	0.15512116
246	0x3d834126	0.064089105
247	0xbe0d907d	-0.13824649
248	0x3dd13798	0.10215682
249	0xbda3e398	-0.080023944
250	0xbe868109	-0.2627032
251	0x3ca3c19d	0.019989783
252	0x3d5152f5	0.051104505
253	0x3c78ded0	0.015189841
254	0x3d89fb11	0.0673734
255	0x3af735f1	0.001886068

lstm.weight_hh_l0 f4 [512, 128]
0	0x3cca7b13	0.02471689
1	0xbc7ddf08	-0.015495069
2	0x3bd08c25	0.006364363
3	0x3d8fbc95	0.07018391
4	0x3cc37b25	0.02386243
5	0xbdf49040	-0.11941576
6	0x3d19d255	0.037554104
7	0xbd4fe502	-0.05075551
8	0x3d34d52e	0.044148616
9	0xbd0a558a	-0.033772983
10	0x3c8ec5b4	0.017428257
11	0xbd8454a9	-0.0646146
12	0x3b063db3	0.0020483553
13	0xbd527739	-0.05138323
14	0xbd965fca	-0.07342489
15	0xbac6d64e	-0.0015170069
16	0xbb4533f7	-0.0030090788
17	0xbd6c01ee	-0.057619028
18	0xbe062d2e	-0.13103172
19	0xbb98df33	-0.0046652793
20	0xbd96d60c	-0.07365045
21	0x3cb83322	0.02248532
22	0x3dc9ad48	0.09847504
23	0x3d14ef1c	0.036360845
24	0x3e0f9454	0.14021426
25	0x3dd4b062	0.10385205
26	0xbd5908aa	-0.05298678
27	0x3d97d487	0.07413583
28	0xbd626683	-0.055273544
29	0x3d218d3a	0.039441325
30	0x3d1559bf	0.03646254
31	0x3ac1eb00	0.0014794767
32	0xbcea8741	-0.028628947
33	0xbd4e8b14	-0.050425604
34	0xbcaf04e1	-0.021364631
35	0xbcd187f9	-0.025577532
36	0xbcf6a729	-0.030109005
37	0xbe1b004a	-0.15136829
38	0x3dd0dc07	0.10198217
39	0x3d1619d5	0.03664573
40	0xbd40b68f	-0.0470491
41	0xbd07baa9	-0.033136997
42	0xbd9ed936	-0.077562734
43	0xbccb3fb3	-0.024810648
44	0xbdb43ed1	-0.08801044
45	0xbb9bdb8a	-0.0047563957
46	0xbd6a678a	-0.05722765
47	0xbd03071a	-0.031989194
48	0x3d40ab38	0.047038287
49	0xbccee0ba	-0.025253642
50	0x3c1c6b27	0.0095470315
51	0xbd5b34c0	-0.053517103
52	0xbcbb0b20	-0.022832453
53	0xbc640908	-0.013918169
54	0xbce9fbd7	-0.02856247
55	0x3d5e270c	0.054236457
56	0xbdae4089	-0.08508403
57	0xbcc7d251	-0.024392279
58	0x3cf00714	0.02930025
59	0x3ce4f285	0.027947674
60	0xbd0d5f43	-0.034514677
61	0xbdd2cbfe	-0.10292815
62	0x3d96c2e9	0.07361395
63	0x3dda2e1f	0.10653328
64	0xbd0a78a5	-0.03380646
65	0x3cf55c12	0.02995113
66	0x3cc91533	0.024546241
67	0x3ce338dd	0.027737075
68	0x3c5de691	0.013543741
69	0xbaf0e526	-0.0018378838
70	0xbc1d1d7f	-0.009589552
71	0xb9067e4e	-0.00012826288
72	0x3d9690e0	0.073518515
73	0x3d489809	0.048973117
74	0x3c07c54b	0.008286784
75	0x3dbbbc3b	0.091667615
76	0x3d28e08b	0.041229766
77	0x3cb89312	0.022531066
78	0xbcb6e6be	-0.022326823
79	0xbcfa1fdb	-0.030532768
80	0xbd6cca7f	-0.057810303
81	0x3d07b758	0.033133835
82	0xbd00e1b0	-0.031465232
83	0x3e05d269	0.13068546
84	0xbcc14df8	-0.023596749
85	0x3b304dd4	0.0026901858
86	0xbcde0715	-0.027102986
87	0x3db1a230	0.08673513
88	0x3d8d2c0c	0.06893167
89	0xbcc3f205	-0.023919115
90	0xbd34f241	-0.044176344
91	0xbd51833e	-0.051150553
92	0xbce9ea29	-0.02855404
93	0xbd5a2f34	-0.053267673
94	0x3dee7350	0.11643088
95	0xbdda1497	-0.106484585
96	0x3c0c97d3	0.00858112
97	0x3cd5e8ab	0.026111921
98	0xbd19d2ad	-0.03755443
99	0x3ca7ca45	0.020482192
100	0x3ddd1f14	0.10796943
101	0x3c91b5bb	0.017786851
102	0xbdc82cda	-0.0977418
103	0xbcce2c59	-0.025167631
104	0x3ca6dd44	0.02036918
105	0x3d3a9c9c	0.04555951
106	0xbd6f0c84	-0.058361545
107	0x3b8a5dce	0.004222608
108	0xbddf55d3	-0.109050415
109	0x3cb0a109	0.021561163
110	0xbd480d89	-0.048841033
111	0xbd45921e	-0.04823505
112	0x3dccab4c	0.0999361
113	0xbc432107	-0.01190973
114	0xbcfdea74	-0.030995585
115	0xbd0392a1	-0.032122258
116	0x3d9cc1af	0.0765413
117	0x3bdb3049	0.0066891056
118	0xbc2c824a	-0.01052911
119	0xbd1eb1ec	-0.0387439
120	0xbcc4a581	-0.0240047
121	0xbd22f38b	-0.039783042
122	0x3cddb788	0.027065054
123	0x3cf23134	0.029564478
124	0xbe17be39	-0.14818658
125	0xbb69f2a8	-0.0035697613
126	0xbd18ff38	-0.03735277
127	0xbd4bc051	-0.049743954
128	0xbc820966	-0.015873622
129	0xbd3ec9a3	-0.046579015
130	0x3d97c27d	0.074101426
131	0xbe11231c	-0.1417355
132	0xbb40dfe9	-0.0029430336
133	0x3dcb41ed	0.09924684
134	0x3d1a7483	0.03770877
135	0x3a8b6c35	0.0010637107
136	0xbcb4f01a	-0.022087146
137	0x3ca63ec2	0.020293597
138	0x3c4f23f7	0.012642852
139	0xbbf82110	-0.0075723007
140	0xbda70941	-0.08156062
141	0xbcd37443	-0.025812274
142	0x3d71e540	0.05905652
143	0xbcb2037b	-0.021730175
144	0xbd02b192	-0.031907625
145	0x3d97951c	0.07401487
146	0x3d6782d8	0.056521267
147	0x3d27cc04	0.04096605
148	0x3d8e932e	0.06961666
149	0x3addc541	0.0016919748
150	0x3d36e16d	0.044648577
151	0x3d97767e	0.073956475
152	0xbe134636	-0.14382252
153	0x3d42672f	0.047461685
154	0x39464dc5	0.00018911723
155	0xbdcccc19	-0.09999866
156	0x3dd9aee9	0.106290646
157	0xbdf5b85f	-0.119980566
158	0xbcd8f3ab	-0.026483377
159	0x3b9695df	0.0045955027
160	0x3c8a485f	0.016880212
161	0xbcaeadee	-0.02132317
162	0x3d9ac013	0.075561665
163	0x3d70123a	0.058611132
164	0x3ce884ad	0.028383577
165	0x3db559de	0.088550314
166	0x3da579c6	0.08079867
167	0xbd402b6d	-0.046916414
168	0xbd172029	-0.036895905
169	0x3dc1303d	0.09433029
170	0x3d81e790	0.06342995
171	0xbd30a4ac	-0.043125793
172	0xbd9876a1	-0.07444502
173	0x3d726367	0.05917683
174	0x3d388d39	0.045056555
175	0x3af39cbc	0.0018586139
176	0xbd10e33c	-0.035372958
177	0xbda1c34e	-0.078985795
178	0xbdc3df72	-0.09564103
179	0x3c170cff	0.009219407
180	0x3b9ede79	0.004848298
181	0x3d4ca681	0.049963478
182	0x3d682b83	0.05668212
183	0xbda71cb9	-0.08159775
184	0x3d71c996	0.059030138
185	0xbc8c4bbb	-0.017125955
186	0xbdcf1d9c	-0.101130694
187	0xbd9131ae	-0.07089554
188	0x3d1f5a8b	0.038904708
189	0x3c987452	0.018610153
190	0xbc8bc78f	-0.01706293
191	0xbd6cc57f	-0.057805534
192	0xbb31be85	-0.0027121615
193	0x3d406f28	0.046981007
194	0xbd97800b	-0.07397469
195	0xbd2724e3	-0.040806662
196	0x3da62709	0.08112914
197	0x3d864659	0.065563865
198	0x3dc5a06a	0.09649737
199	0x3dccb2f1	0.09995068
200	0xbd7f3a5c	-0.062311515
201	0x3b8765c8	0.0041320063
202	0x3db65208	0.08902365
203	0xbd155129	-0.036454353
204	0xbd497669	-0.04918519
205	0x3cb889c3	0.022526627
206	0x3db0acb4	0.086266905
207	0xbc4bd841	-0.012441696
208	0x3d6b96e3	0.057516944
209	0xbd3bf37b	-0.045886498
210	0xbcb10c6b	-0.021612367
211	0xbc69a299	-0.014259958
212	0x3d9909c7	0.07472568
213	0x3d4c7124	0.049912587
214	0x3dbd1d04	0.0923405
215	0x3d0f4efe	0.034987442
216	0x3d193cd9	0.037411544
217	0xbd4ad7ee	-0.049522333
218	0x3e06c51a	0.13161126
219	0x3e088729	0.1333281
220	0x3d64b0b8	0.055832595
221	0x3dfb7cf7	0.122796945
222	0x3d9c3f7e	0.07629298
223	0x3d302cde	0.04301154
224	0x3e5d1b1e	0.21592376
225	0xbd886dcd	-0.06661568
226	0x3d901e5c	0.070370406
227	0xbdcc9573	-0.09989443
228	0xbd724143	-0.05914427
229	0xbcc865cb	-0.024462601
230	0x3de7dd69	0.113215275
231	0xbdb46439	-0.088081785
232	0xbbed9492	-0.007250377
233	0x3ca97509	0.02068569
234	0x3d6f87d9	0.058479164
235	0xbe13d665	-0.14437254
236	0x3d60ff5c	0.05493103
237	0xbdf93857	-0.12168949
238	0xbce60d69	-0.028082566
239	0xbd4e81ff	-0.050416943
240	0xbc895912	-0.016766105
241	0x3b94eff7	0.0045452076
242	0x3d521b62	0.051295646
243	0xbd50482a	-0.05085007
244	0x3d03363c	0.032034144
245	0xbcde25ac	-0.027117573
246	0x3d7e0349	0.06201485
247	0xbce52617	-0.027972264
248	0x3d7dc522	0.06195558
249	0xbccc062a	-0.024905283
250	0xbcadc5f8	-0.021212563
251	0xbdff924d	-0.124790765
252	0x3dfe0af0	0.1240443
253	0xb9f6ad64	-0.00047049962
254	0xbd6fc164	-0.05853404
255	0x3d991cbb	0.07476183

lstm.bias_ih_l0 f4 [512]
0	0xbda68e0f	-0.08132564
1	0xbd560d30	-0.05225867
2	0xbdee8a54	-0.11647478
3	0xbdf10256	-0.11768024
4	0xbe33ebd7	-0.17570435
5	0xbe13321e	-0.14374587
6	0xbc9f7a7c	-0.019467585
7	0xbd739c0a	-0.059474982
8	0xbdff4a77	-0.12465375
9	0xbe334eef	-0.1751058
10	0xbe589214	-0.21149474
11	0xbe285597	-0.164389
12	0xbd97a805	-0.07405094
13	0xbe0f3fec	-0.13989228
14	0xbe4120bc	-0.18860143
15	0x3d0a1832	0.03371448
16	0xbe3efe81	-0.18651773
17	0x3da6a897	0.08137625
18	0xbde0133a	-0.10941167
19	0xbe42422d	-0.18970557
20	0xbcd79041	-0.026313903
21	0xbe3c1683	-0.18367963
22	0xbda325a0	-0.07966161
23	0xbc3c9be2	-0.011511775
24	0xbde9bc96	-0.11412923
25	0xbd3a9eed	-0.04556172
26	0xbe359d58	-0.17735803
27	0xbdef0015	-0.116699375
28	0xbdd54e8c	-0.10415372
29	0xbe11b9ee	-0.14231083
30	0xbd8161fe	-0.06317519
31	0xbe0dffbb	-0.13867085
32	0xbd8c3998	-0.06846923
33	0xbe5571d8	-0.20844209
34	0xbd3ac0e5	-0.045594115
35	0xbe83c061	-0.2573271
36	0xbe4dc476	-0.20094475
37	0xbdf19c4b	-0.11797389
38	0xbd6f13f0	-0.058368623
39	0xbd81c632	-0.06336631
40	0x3d732e20	0.05937016
41	0xbdb8a59e	-0.09015964
42	0xbe477dd0	-0.19481587
43	0xbe38f475	-0.18062003
44	0xbb64514a	-0.003483849
45	0xbe98dd72	-0.2985645
46	0xbe6dd84b	-0.2322704
47	0xbe1a5979	-0.15073194
48	0xbe489d8a	-0.19591346
49	0xbdfd2046	-0.12359671
50	0xbe6ab16d	-0.22919245
51	0xbe28bffd	-0.16479488
52	0xbd1e273c	-0.038611636
53	0xbd3e82d9	-0.046511505
54	0xbe8975e5	-0.2684776
55	0xbdd21e78	-0.10259718
56	0xbe277753	-0.16354112
57	0xbe0c4781	-0.13699152
58	0xbe04709c	-0.12933582
59	0xbd9a8104	-0.07544139
60	0xbe316f03	-0.17327504
61	0xbbd97f3e	-0.006637483
62	0xbe0bd213	-0.13654356
63	0xbdacc92b	-0.08436807
64	0xbd732afd	-0.05936717
65	0xbdb48d01	-0.08815957
66	0xbd23712e	-0.03990286
67	0xbe0fe743	-0.14053063
68	0xbde45651	-0.11149276
69	0xbe28caf2	-0.16483667
70	0xbdee785b	-0.1164405
71	0xbe0da352	-0.13831833
72	0xbd4b8c35	-0.04969426
73	0xbe271b60	-0.16319036
74	0xbdd598c7	-0.104295306
75	0xbd4b19c0	-0.049585104
76	0xbe08a156	-0.13342795
77	0xbe3230b7	-0.17401396
78	0xbe386bca	-0.18009868
79	0xbe5aa1da	-0.21350804
80	0xbde5acef	-0.11214625
81	0xbe020b3f	-0.12699603
82	0xbd71b853	-0.059013676
83	0xbe28dc32	-0.16490248
84	0xbe0c3c50	-0.13694882
85	0xbdedf073	-0.11618128
86	0xbe29293d	-0.16519637
87	0xbdc512d4	-0.09622732
88	0xbe5da626	-0.21645412
89	0xbe3e214d	-0.1856739
90	0xbe2a2b12	-0.16617993
91	0xbe054127	-0.13013135
92	0xbe87ef83	-0.2654992
93	0xbe81676a	-0.2527421
94	0xbd8aeb45	-0.06783155
95	0xbdd25d96	-0.10271756
96	0x3c94d9e5	0.018170306
97	0xbe782b01	-0.24235155
98	0xbea01c55	-0.31271616
99	0xbe4f4886	-0.20242509
100	0xbdccc540	-0.0999856
101	0xbe774063	-0.24145655
102	0xbe60573f	-0.21908282
103	0xbe1d0da2	-0.15337232
104	0xbe2ffd0f	-0.17186378
105	0xbdd7f546	-0.10544829
106	0xbe369a99	-0.17832412
107	0xbe20f30e	-0.15717718
108	0xbdf0f3c3	-0.11765244
109	0xbd7916c9	-0.060812745
110	0xbda7e806	-0.08198552
111	0x3c673c06	0.014113432
112	0xbe437c08	-0.19090283
113	0xbe0b2077	-0.13586603
114	0xbc3246f9	-0.010881179
115	0xbe603ed1	-0.21898963
116	0xbe333dbb	-0.17504017
117	0xbe5d4dc3	-0.21611695
118	0xbe329d99	-0.17442931
119	0xbc9060a7	-0.017624212
120	0xbe50a542	-0.20375541
121	0xbe2742a7	-0.1633402
122	0xbe1ede5c	-0.15514511
123	0xbd531f77	-0.05154368
124	0xbd78375d	-0.060599674
125	0xbe38609c	-0.18005604
126	0xbe8a5ed0	-0.2702546
127	0xbe6aecdd	-0.22941919
128	0xbde8de5b	-0.11370536
129	0x3defa056	0.117005035
130	0xbe85beb0	-0.26122046
131	0xbd998226	-0.07495527
132	0xbcf91a93	-0.03040818
133	0xbe202d1a	-0.15642205
134	0xbd7f1808	-0.062278777
135	0x3c9bf667	0.019038392
136	0xbdb2dea9	-0.08733875
137	0xbe4db227	-0.20087491
138	0xbe83fd6b	-0.2577928
139	0xbe3ad2e7	-0.18244515
140	0xbe60f2f3	-0.21967678
141	0xbe5062e4	-0.20350224
142	0xbe5eee26	-0.21770534
143	0xbe40d3af	-0.18830751
144	0xbe39cfb3	-0.18145637
145	0xbe1cba9e	-0.15305564
146	0xbb930d5e	-0.0044876775
147	0xbe573eec	-0.21020097
148	0xbdb41a86	-0.087941214
149	0xbde9b4a9	-0.11411411
150	0xbd8251d8	-0.06363267
151	0xbe49886b	-0.19680946
152	0xbe8445c1	-0.25834468
153	0xbd411ddc	-0.047147617
154	0xbdfecced	-0.1244143
155	0x3dc44f9f	0.09585499
156	0xbe0dac3f	-0.13835238
157	0xbd834eec	-0.064115375
158	0xbe04a051	-0.12951781
159	0xbe2744f1	-0.16334893
160	0xbe58f1d5	-0.21186002
161	0xbe6e3ce0	-0.2326541
162	0xbe017c5b	-0.12645094
163	0xbe504284	-0.20337874
164	0xbe2ff7e1	-0.17184402
165	0xbd839d0b	-0.06426438
166	0xbd305f44	-0.043059602
167	0xbdf7df49	-0.12103135
168	0x3d5db790	0.054130137
169	0xbe8ed915	-0.27899995
170	0xbe3dae51	-0.18523528
171	0xbe4dd4aa	-0.20100656
172	0xbd9d7905	-0.07689098
173	0xbe7ea04d	-0.24865837
174	0xbe380fd2	-0.17974785
175	0xbdd2645f	-0.102730505
176	0xbe3215b5	-0.17391093
177	0xbe4f9a51	-0.20273711
178	0xbe30e719	-0.17275657
179	0xbe90ce95	-0.2828261
180	0xbe296737	-0.1654328
181	0xbce95c13	-0.028486287
182	0xbe802410	-0.25027514
183	0xbe649633	-0.22322921
184	0xbe684dbf	-0.22685908
185	0xbe829e73	-0.25511512
186	0xbe21f30f	-0.15815376
187	0xbe188679	-0.14895047
188	0xbe0b3c4d	-0.13597222
189	0xbe4fd693	-0.20296697
190	0xbd7f534c	-0.062335297
191	0xbe01cb71	-0.12675263
192	0xbd557d83	-0.05212165
193	0xbd606517	-0.054783907
194	0xba542540	-0.0008092709
195	0xbda741c1	-0.081668384
196	0xbdec62e3	-0.11542299
197	0xbe3678f3	-0.17819576
198	0xbdfbbe41	-0.122921474
199	0xbe26a56c	-0.16274041
200	0x3c254384	0.010086898
201	0xbdf65063	-0.12027051
202	0xbd8b3af0	-0.06798351
203	0xbe00fb16	-0.12595782
204	0xbdd20d32	-0.10256423
205	0xbe279520	-0.1636548
206	0xbddbd3a8	-0.107337296
207	0xbe4078fd	-0.18796153
208	0xbe2688fe	-0.16263196
209	0x3ab1757c	0.0013539041
210	0xbdaa407f	-0.08313083
211	0x3cd14930	0.025547594
212	0xbdb0a30c	-0.08624849
213	0xbe23497f	-0.15946005
214	0xbde0d092	-0.10977282
215	0xbe2811ec	-0.16413087
216	0xbdd45bc9	-0.10369069
217	0xbe6bdb6c	-0.23032922
218	0xbdfba751	-0.122877724
219	0xbe3fe7c7	-0.1874076
220	0xbe902b6c	-0.28158128
221	0xbe2b534d	-0.16730995
222	0xbea07333	-0.3133789
223	0xbe2a4bbd	-0.16630454
224	0x3d948a4e	0.07252942
225	0xbe33daac	-0.17563885
226	0xbe668b44	-0.22514063
227	0xbe4eaf27	-0.20184003
228	0xbc5f2bc9	-0.013621279
229	0xbe6b522f	-0.2298057
230	0xbdbaedcb	-0.09127387
231	0xbdc81276	-0.09769146
232	0xbdbfa5cc	-0.09357795
233	0xbe799989	-0.24374975
234	0xbe27f0e1	-0.16400482
235	0x3bddbb6b	0.0067667267
236	0xbe3c8dc0	-0.18413448
237	0xbe199291	-0.14997317
238	0xbe148101	-0.14502336
239	0xbe44a847	-0.19204818
240	0xbe3c37ce	-0.18380663
241	0xbddeecd4	-0.10885015
242	0xbdfe818f	-0.12427055
243	0xbe140c06	-0.14457712
244	0xbe3e2e0d	-0.18572254
245	0xbe87a62a	-0.2649396
246	0xbe132b40	-0.14371967
247	0xbdecf53f	-0.115702145
248	0xbe1f9058	-0.15582407
249	0xbe4c41c6	-0.19946966
250	0xbe65b7ec	-0.22433442
251	0xbe0317ac	-0.12801999
252	0xbca9a06e	-0.020706382
253	0xbe6e6a42	-0.23282722
254	0xbe76eaa2	-0.24112943
255	0xbe0e1549	-0.13875307

lstm.bias_hh_l0 f4 [512]
0	0xbe002bac	-0.1251666
1	0xbcd38c64	-0.02582378
2	0xbe0e55e3	-0.1389995
3	0xbd969059	-0.07351751
4	0xbdee32b2	-0.11630763
5	0xbd4f413d	-0.050599325
6	0xbd20f29c	-0.03929387
7	0xba94bfb9	-0.0011348642
8	0xbd545706	-0.051840805
9	0xbe20e53e	-0.15712449
10	0xbe3b3f46	-0.18285856
11	0xbe144310	-0.14478707
12	0xbdaa852e	-0.08326183
13	0xbd577d60	-0.0526098
14	0xbe692b42	-0.22770408
15	0x3d22b3bc	0.03972219
16	0xbe5fc0e6	-0.21850929
17	0x3d2a9dda	0.041654445
18	0xbe2da298	-0.16956556
19	0xbe5df845	-0.21676739
20	0xbd821db5	-0.063533224
21	0xbd8c470d	-0.06849489
22	0xbd291e44	-0.04128863
23	0xbd53e1c4	-0.05172898
24	0xbb75dac9	-0.003751444
25	0x3c71e84a	0.014764855
26	0xbe43ef0d	-0.1913416
27	0xbd14aa45	-0.036295194
28	0xbe6ab2bb	-0.22919743
29	0xbe53fb42	-0.20701316
30	0xbcd151cf	-0.025551705
31	0xbe147659	-0.14498271
32	0xbdd7ae8f	-0.10531341
33	0xbe4a9ad4	-0.19785625
34	0xbde7d835	-0.11320535
35	0xbe93f9f4	-0.28901637
36	0xbe3ecea6	-0.18633518
37	0x3c96c850	0.018406063
38	0xbd9b5d3e	-0.07586144
39	0xbe0bd933	-0.13657074
40	0x3c780a7e	0.01513922
41	0xbe3099fa	-0.17246237
42	0xbe8046d6	-0.25054044
43	0xbe4e525e	-0.20148608
44	0xbd7906a7	-0.06079736
45	0xbe91746d	-0.28409138
46	0xbe15d513	-0.14632063
47	0xbdd96f4e	-0.10616933
48	0xbe5208b2	-0.2051113
49	0xbda9ef63	-0.082976125
50	0xbe5208d4	-0.2051118
51	0xbe39f07a	-0.18158141
52	0xbc06617d	-0.008201954
53	0xbd23e8c7	-0.040016916
54	0xbe802e79	-0.25035456
55	0xbe1de8b2	-0.15420797
56	0xbe320f1c	-0.17388576
57	0xbe0ca03a	-0.13732997
58	0xbe2ba2e6	-0.1676136
59	0xbe3566af	-0.17714952
60	0xbe2211a0	-0.15827036
61	0xbd9a76fe	-0.07542227
62	0xbe0cd8e6	-0.13754615
63	0xbd6cb472	-0.057789274
64	0xbc347f9f	-0.011016755
65	0xbde79a5f	-0.11308741
66	0x3da9aa52	0.08284439
67	0xbdd22826	-0.10261564
68	0xbdec0a3f	-0.11525392
69	0xbe647867	-0.22311555
70	0xbe4ac1cb	-0.19800489
71	0xbe07594f	-0.13217662
72	0xbe1779d5	-0.14792569
73	0xbe20c8ea	-0.15701643
74	0xbd6497b8	-0.055808753
75	0xbdc2276a	-0.09480174
76	0xbe2b2201	-0.1671219
77	0xbe1cc3f2	-0.15309122
78	0xbd8b7cdf	-0.06810927
79	0xbe57c758	-0.21072137
80	0xbe08954f	-0.13338207
81	0xbe1b0a6b	-0.15140693
82	0xbc1dfd25	-0.009642874
83	0xbdf283e8	-0.11841565
84	0xbe090459	-0.13380565
85	0xbe16af51	-0.14715315
86	0xbda0b0b2	-0.07846202
87	0xbdd6923d	-0.104771115
88	0xbe8b0774	-0.27154124
89	0xbe6b3317	-0.22968708
90	0xbe4c2864	-0.19937283
91	0xbde891ea	-0.11355956
92	0xbe485f94	-0.1956771
93	0xbe32ade3	-0.17449145
94	0xbd9c49e5	-0.07631282
95	0xbd8c5973	-0.068529986
96	0x3c8d062f	0.017214863
97	0xbe878df2	-0.26475483
98	0xbe8838f8	-0.26605964
99	0xbe77c883	-0.24197583
100	0xbda72d56	-0.08162944
101	0xbe119be6	-0.14219627
102	0xbe066e38	-0.13127983
103	0xbd9beb89	-0.07613284
104	0xbe0ed141	-0.13947012
105	0xbe3c72b9	-0.18403138
106	0xbe165b03	-0.14683156
107	0xbe018658	-0.12648904
108	0xbe11a159	-0.14221705
109	0xbddc76c8	-0.10764843
110	0xbe12e7c9	-0.14346232
111	0x3c387ed5	0.011260708
112	0xbdb4dc7d	-0.08831117
113	0xbe289ed1	-0.16466834
114	0xbd1bafc1	-0.03800941
115	0xbe483d29	-0.19554581
116	0xbe27afde	-0.16375682
117	0xbe6c2e16	-0.23064455
118	0xbe107daa	-0.14110437
119	0x3d412779	0.047156785
120	0xbe601b06	-0.21885309
121	0xbe37b5e0	-0.17940474
122	0xbe3b5590	-0.18294358
123	0xbda7c6f8	-0.08192247
124	0x3cdbd704	0.026835926
125	0xbe3e9b48	-0.18613923
126	0xbe63d4db	-0.22249167
127	0xbe279148	-0.16364014
128	0xbe0043ef	-0.12525915
129	0x3e2385d2	0.15969017
130	0xbe5fc7db	-0.21853583
131	0xbd8dc5ec	-0.06922516
132	0xbdafc2cf	-0.08582079
133	0xbdf15a76	-0.11784832
134	0xbc2cdd80	-0.010550857
135	0xbe0fb188	-0.14032567
136	0xbd020be8	-0.031749636
137	0xbdc0c8a5	-0.0941327
138	0xbe819d00	-0.25315094
139	0xbe437da8	-0.19090903
140	0xbe277dde	-0.16356608
141	0xbe4f0a7a	-0.2021884
142	0xbdf40876	-0.11915676
143	0xbe33e45e	-0.17567584
144	0xbe40d93c	-0.18832868
145	0xbe148835	-0.14505084
146	0xbd517de0	-0.051145434
147	0xbe55050d	-0.20802708
148	0xbd737fa9	-0.059447918
149	0xbe14fb95	-0.14549096
150	0xbd2ae7fe	-0.04172515
151	0xbe63b0d7	-0.22235428
152	0xbe6f6a77	-0.23380457
153	0xbe0e8160	-0.1391654
154	0xbe05dd9f	-0.13072823
155	0x3d6d8d26	0.057995938
156	0xbe4486eb	-0.19192092
157	0xbd7a38dd	-0.061089385
158	0xbe09e7b9	-0.13467301
159	0xbdadb0ea	-0.08481009
160	0xbe4c0d55	-0.19926961
161	0xbe51d3a6	-0.20490894
162	0xbda60b2c	-0.081075996
163	0xbe54081d	-0.2070622
164	0xbe52a152	-0.20569351
165	0xbd177280	-0.03697443
166	0xbe402e58	-0.18767679
167	0xbe19d2ef	-0.15021871
168	0x3dc908ed	0.098161556
169	0xbe9a6b30	-0.30159903
170	0xbe3594c3	-0.1773253
171	0xbe5f9bc6	-0.21836767
172	0xbdb14727	-0.08656149
173	0xbe738077	-0.23779474
174	0xbe1670f7	-0.1469153
175	0xbe1da778	-0.15395916
176	0xbe421b7a	-0.18955794
177	0xbe52928b	-0.20563714
178	0xbe120dc0	-0.14263058
179	0xbe8d21bd	-0.27564803
180	0xbe01a7df	-0.12661694
181	0xbd5d5051	-0.054031674
182	0xbe5c9476	-0.21541008
183	0xbe779f1b	-0.24181788
184	0xbde5e4f8	-0.11225313
185	0xbe90f519	-0.28311995
186	0xbe0fe240	-0.14051151
187	0xbdad214c	-0.084536165
188	0xbdcd2d11	-0.10018361
189	0xbe1ebc63	-0.15501551
190	0xbd339487	-0.04384282
191	0xbdec723d	-0.11545227
192	0xbca48118	-0.020081088
193	0xbb4d7671	-0.0031351114
194	0x3c77d910	0.015127435
195	0xbde8e3f6	-0.11371605
196	0xbe24768f	-0.16060852
197	0xbe3d86f1	-0.18508507
198	0xbdb58212	-0.088626996
199	0xbd94784e	-0.07249509
200	0xbde2ce59	-0.11074514
201	0xbdf05bbd	-0.11736248
202	0xbdb1a448	-0.08673912
203	0xbe1fd61d	-0.15609021
204	0xbded6c8f	-0.115929715
205	0xbe2e1d26	-0.17003307
206	0xbd9c0d0f	-0.07619678
207	0xbe63432b	-0.22193591
208	0xbe295f8b	-0.16540353
209	0xbd380af5	-0.044932324
210	0xbdd010f7	-0.10159486
211	0xbdbfab44	-0.09358838
212	0xbe5b522a	-0.21418062
213	0xbe351602	-0.17684177
214	0xbe077275	-0.13227256
215	0xbe2bdee1	-0.1678424
216	0xbe0f47e4	-0.13992268
217	0xbe4409cb	-0.1914436
218	0xbd358453	-0.044315647
219	0xbdf924b1	-0.121652015
220	0xbe83e34a	-0.25759345
221	0xbe68a300	-0.2271843
222	0xbe9c0567	-0.30472872
223	0xbdac5ac9	-0.084157534
224	0x3c693b24	0.014235292
225	0xbdf6d377	-0.120520525
226	0xbe782b65	-0.24235304
227	0xbe1c4d37	-0.1526383
228	0xbdb7ee72	-0.08981027
229	0xbe6accca	-0.22929683
230	0xbe04d978	-0.12973583
231	0xbe062ca9	-0.13102974
232	0xbd4c5349	-0.049884114
233	0xbe70b5b1	-0.2350681
234	0xbe46b1b0	-0.1940372
235	0xbd93aedf	-0.072110884
236	0xbe41637c	-0.18885607
237	0xbe4bea7d	-0.19913669
238	0xbe009ecc	-0.12560576
239	0xbe359fde	-0.17736766
240	0xbe30ba13	-0.17258482
241	0xbe41a0c4	-0.18908983
242	0xbdbf4872	-0.0933999
243	0xbe34fbf7	-0.17674242
244	0xbe0fb7de	-0.14034984
245	0xbe5fb077	-0.2184466
246	0xbe409250	-0.18805814
247	0xbe3c3d08	-0.18382657
248	0xbe34df88	-0.17663395
249	0xbe558204	-0.20850378
250	0xbe86f256	-0.26356763
251	0xbe373473	-0.17891102
252	0xbd91abda	-0.07112856
253	0xbe46556a	-0.1936852
254	0xbe6d0f57	-0.23150383
255	0xbe6b5b3e	-0.22984025

lstm.weight_ih_l1 f4 [512, 128]
0	0x3d3df4df	0.046376105
1	0x3db397ab	0.08769163
2	0x3cb6a28e	0.022294309
3	0x3cdd6754	0.02702681
4	0xbca71011	-0.020393403
5	0x3d20b2a7	0.039232876
6	0x3bd80c3e	0.0065932563
7	0xbd32a6a0	-0.043615937
8	0xbc470ff5	-0.012149801
9	0x3ca411d5	0.020028034
10	0x3b124d78	0.0022324007
11	0xbd30320c	-0.04301648
12	0xbd63534c	-0.05549936
13	0x3c9201d9	0.017823147
14	0xbb9f8cea	-0.004869093
15	0xbd266aa7	-0.040629055
16	0xbbffd339	-0.007807162
17	0x3d85935c	0.06522247
18	0xbc6a18cb	-0.014288138
19	0x3d651dc1	0.05593658
20	0x3d3cefc3	0.046127092
21	0x3c193255	0.009350379
22	0x3d70a495	0.058750708
23	0x3c7cdc5a	0.015433395
24	0xbd4e9204	-0.05043222
25	0x3bdc48c9	0.006722544
26	0x3d8712f4	0.06595412
27	0x3d4eec27	0.05051818
28	0x3c7ea1f1	0.0155415395
29	0xbd59b339	-0.053149436
30	0x3c855d3e	0.016279813
31	0x3ce56f7c	0.028007261
32	0xbd001a9e	-0.031275384
33	0xbc16b9bf	-0.009199559
34	0xbd220c4d	-0.039562512
35	0xbd0325f6	-0.032018624
36	0x3b80941a	0.003923905
37	0xbd420b70	-0.04737419
38	0x3d261bcb	0.04055385
39	0x3d284d0e	0.04108911
40	0x3ba48fa4	0.005022006
41	0xbcab9125	-0.020943234
42	0xbd6568e6	-0.056008242
43	0x3cc0be6f	0.023528306
44	0xbb843390	-0.004034467
45	0xbd09bb35	-0.0336258
46	0x3bacd2c8	0.0052741505
47	0x3caf0435	0.02136431
48	0x3ccffb03	0.025388246
49	0xbd23a4dc	-0.039952144
50	0x3b539d87	0.0032289939
51	0x3d0ebeaf	0.03484982
52	0x3a3d4c91	0.0007221187
53	0xbcda990f	-0.026684312
54	0xbc46e28b	-0.012138973
55	0x3c9f396c	0.01943656
56	0xbc75e5bd	-0.015008387
57	0xbd674ad0	-0.05646783
58	0x3b9b0980	0.004731357
59	0x3d5472ad	0.051867176
60	0xbbc85b19	-0.0061143753
61	0x3c267a62	0.010161014
62	0x3d03f837	0.032219138
63	0xbc034707	-0.00801254
64	0xbc5eb7d5	-0.013593634
65	0xbcd6f506	-0.026239883
66	0xbd486223	-0.048921715
67	0xbb0a002a	-0.0021057227
68	0xbc3afa4c	-0.0114122145
69	0xbc4dff56	-0.012573084
70	0xbcb20ca9	-0.021734552
71	0xbc5dbe03	-0.013534072
72	0xbc5075c0	-0.012723386
73	0xbcceccf2	-0.02524421
74	0xbbf91c32	-0.007602238
75	0x3d0dc727	0.034613755
76	0xb9e113c2	-0.00042930065
77	0xbc42962d	-0.011876625
78	0xbd258fcc	-0.04042034
79	0x3cfaeeb3	0.030631399
80	0xbd275f3e	-0.040862314
81	0xbd191a00	-0.03737831
82	0x3ccc940a	0.024972934
83	0x3d966e3d	0.07345245
84	0xbc631a87	-0.013861305
85	0xbc9367f8	-0.017993912
86	0xbd0d748d	-0.03453498
87	0xbad5e4de	-0.0016318818
88	0xbc1d183f	-0.0095883
89	0x3c265c75	0.010153879
90	0xbc16a485	-0.009194498
91	0xbc373806	-0.011182791
92	0x3bc0d531	0.0058847894
93	0x3be4de6b	0.006984522
94	0x3c9d657f	0.019213436
95	0xbc94cb6b	-0.018163403
96	0xbcc5c9fd	-0.024144167
97	0x3c010bf7	0.007876388
98	0x392cdf5a	0.00016486403
99	0x3c332434	0.0109339245
100	0x3c5faa2b	0.013651411
101	0x3d3c2dd4	0.045942143
102	0xbbbd4ade	-0.005776747
103	0xbbe6d1a3	-0.0070440336
104	0xbd9b1bfc	-0.07573697
105	0x3be7a818	0.007069599
106	0xbd060fa0	-0.032729745
107	0x3c81c066	0.015838813
108	0xbbf188ab	-0.0073710284
109	0x3c9ec233	0.01937971
110	0xbd1624c5	-0.03665616
111	0xbd9ce332	-0.076605216
112	0xbb79f586	-0.0038140728
113	0x3cf6bd31	0.03011951
114	0xbb6e06c1	-0.0036319944
115	0xbb0aabcf	-0.0021159535
116	0xbd1a6c97	-0.037701216
117	0xbad0822c	-0.0015907935
118	0xbbe4f391	-0.006987043
119	0xbbccf41a	-0.006254685
120	0xbc732532	-0.014840411
121	0xbd155fe7	-0.036468413
122	0x3cd58c6f	0.02606794
123	0xbd37a548	-0.04483536
124	0x3cfa5fc3	0.03056324
125	0x3cb09add	0.02155822
126	0x3b935b3f	0.0044969614
127	0x3c194a33	0.009356069
128	0x3cc2d7eb	0.023784598
129	0x3c61a096	0.013771197
130	0x3d94130b	0.07230195
131	0xbbff5a7d	-0.0077927695
132	0xbd229a7a	-0.0396981
133	0x3dae3889	0.08506877
134	0xbd8f361a	-0.06992741
135	0x3dd5972e	0.10429226
136	0xbd96a38b	-0.07355412
137	0xbcb2ee01	-0.021842005
138	0x3c6c4cb8	0.014422588
139	0x3d83d465	0.064369954
140	0xbce4b29b	-0.027917197
141	0x3d28675c	0.041114196
142	0x3c8b116d	0.016976083
143	0xbd8a7cae	-0.06762062
144	0x3d156a85	0.036478538
145	0x3d35ec7b	0.04441498
146	0x3c4f2115	0.012642165
147	0x3d89af49	0.06722886
148	0x3df3f36c	0.119116634
149	0xbd05a2b6	-0.032625876
150	0xbd96074b	-0.0732561
151	0x3c460405	0.012085919
152	0xbd8c175c	-0.06840393
153	0xbda1a1b0	-0.078921676
154	0x3d812f94	0.06307903
155	0xbcd2f5ec	-0.02575203
156	0xbd19582e	-0.03743761
157	0xbd492d0a	-0.04911522
158	0xbc6ff908	-0.014646776
159	0x3c195233	0.009357977
160	0x3cda6115	0.02665762
161	0x3d6d2875	0.05789991
162	0x3d33505c	0.04377781
163	0x3c33b384	0.010968093
164	0x3d587425	0.05284514
165	0x3dde08b1	0.108415015
166	0x3c458249	0.012054988
167	0xbd5a2f16	-0.05326756
168	0xbd7be181	-0.061494354
169	0x3d8c2c3c	0.068443745
170	0xbcccde75	-0.02500842
171	0xbc8a2d23	-0.016867226
172	0x3d919004	0.07107547
173	0xbcae95ab	-0.021311602
174	0x3d31e775	0.043433625
175	0xbbb12069	-0.005405475
176	0xbcc95848	-0.024578229
177	0x3c6eee61	0.014583201
178	0x3aa85ca8	0.0012844997
179	0x3d36d905	0.04464056
180	0x3d113926	0.03545489
181	0xbd937987	-0.07200914
182	0x3c8e6cf9	0.017385947
183	0xbcc8d341	-0.024514796
184	0x3d0b02d6	0.03393825
185	0xbd8986a8	-0.06715137
186	0x3c8d2526	0.017229628
187	0x3d375713	0.044760775
188	0xbd44fc81	-0.04809237
189	0x3d0114d1	0.031513993
190	0x3c2ff9ac	0.010740679
191	0xbbf674b7	-0.0075212377
192	0xbc31af55	-0.010845025
193	0x3d97299e	0.07380985
194	0xbd58bf94	-0.05291708
195	0xbdcff233	-0.10153618
196	0x3c9b470e	0.01895478
197	0xba0bca07	-0.00053325336
198	0x3ce0c661	0.027438344
199	0x3c510426	0.012757337
200	0xbc0b91b5	-0.008518626
201	0xbd43a110	-0.047761023
202	0x3da930e3	0.082612775
203	0xb8e7b220	-0.00011048117
204	0xbd2cb942	-0.042168863
205	0xbdb46faa	-0.08810361
206	0x3cd10474	0.025514819
207	0x3d0926f1	0.033484403
208	0xbd2a6fe8	-0.04161063
209	0xbd7c91d9	-0.06166253
210	0xbd42ec0b	-0.04758839
211	0xbde992a1	-0.1140492
212	0xbd4a6ad0	-0.04941827
213	0x3d4199f5	0.047265965
214	0xbd09dbc6	-0.033656858
215	0x3cdc78e5	0.026913116
216	0xbcd6c4b9	-0.026216852
217	0xbd6423af	-0.055698093
218	0xbce01dec	-0.027358018
219	0xbcf993e1	-0.030466022
220	0x3d615014	0.05500801
221	0x3d72cc20	0.0592767
222	0xbcae48ad	-0.021274889
223	0x3d8736d8	0.066022575
224	0x3d03496b	0.03205244
225	0xbd4a2220	-0.04934895
226	0x3b87a34d	0.00413934
227	0xbc3d0717	-0.011537335
228	0xbdc4d6c8	-0.09611279
229	0x3d66bb6a	0.056331076
230	0xbd2cdc74	-0.042202428
231	0x3d27ada0	0.040937066
232	0x3cc7cefb	0.024390688
233	0xbd1a91d3	-0.037736725
234	0xbcda3fe6	-0.026641797
235	0x3ced78ac	0.028988205
236	0x3c84980c	0.016185783
237	0xbda28fd5	-0.0793759
238	0x3c372bb6	0.011179855
239	0xbd25a610	-0.040441573
240	0xbd3a96f3	-0.045554113
241	0x3d08478a	0.03327135
242	0xbd3c57f1	-0.045982305
243	0xbd973d84	-0.0738478
244	0xbc97e133	-0.01854
245	0xbc43296f	-0.011911734
246	0xbc88b7a2	-0.016689125
247	0x3c7f2bd8	0.015574418
248	0x3ce3d976	0.027813654
249	0x3d55c2b9	0.052187655
250	0xbd395329	-0.045245323
251	0x3ad68b6b	0.0016368454
252	0x3e041c61	0.1290145
253	0xbd3f92cd	-0.04677086
254	0x3d51934f	0.051165875
255	0xbd56c1b1	-0.052430812

lstm.weight_hh_l1 f4 [512, 128]
0	0x3d158660	0.036505103
1	0xbcb7f366	-0.022454929
2	0x3d8ddb30	0.06926572
3	0xbd53c203	-0.051698696
4	0x3d13e112	0.036103316
5	0xbd1b15d5	-0.037862618
6	0xbcd81e8b	-0.026381752
7	0x3cc3d7d7	0.023906631
8	0xbc26ffbf	-0.010192811
9	0x3b147d52	0.0022657705
10	0xbc7abbbb	-0.0153035475
11	0xbb71c350	-0.0036890097
12	0x3c1017d6	0.008794745
13	0xbc9011cd	-0.017586613
14	0x3d4d4387	0.050113227
15	0x3b4160f6	0.0029507256
16	0x3d7598af	0.059960064
17	0x3c7e7993	0.015531915
18	0xbc3444de	-0.011002747
19	0x3c049437	0.008091978
20	0xbc56e660	-0.013116449
21	0xbb5b3881	-0.0033450427
22	0x3ce9aee8	0.028525785
23	0x3c90fa34	0.017697431
24	0x3c411b4e	0.011786295
25	0xbc792263	-0.015205952
26	0x3c868b25	0.016423771
27	0x3d214e09	0.03938106
28	0x3cfb988a	0.030712385
29	0xbc317457	-0.01083096
30	0xbd07d30d	-0.033160258
31	0x3cd24852	0.02566925
32	0xbcc84d1f	-0.024450837
33	0xbc332660	-0.010934442
34	0xba921b0e	-0.0011146979
35	0x3cc05c77	0.02348159
36	0x3be91b2b	0.0071138344
37	0x3cdc929a	0.026925374
38	0xbc7f679b	-0.015588666
39	0x3d2144ed	0.039372373
40	0x3b9ee06a	0.0048485296
41	0xbd8fbd80	-0.07018566
42	0xbb607753	-0.003425081
43	0xbb4163e0	-0.0029508993
44	0xbb9132be	-0.004431098
45	0x3ceaf377	0.028680546
46	0x3d670e6c	0.05641024
47	0x3d07f877	0.03319594
48	0x3d1162b1	0.03549451
49	0xbca4f05c	-0.020134144
50	0x3cdf85da	0.027285505
51	0xbd71d7a5	-0.059043545
52	0xbc8d7151	-0.017265948
53	0xbd02bfad	-0.031921078
54	0xbc87280a	-0.016498584
55	0xbd2adfb2	-0.04171724
56	0x3d8335a9	0.06406719
57	0x3c65310a	0.013988743
58	0xbbd6f881	-0.0065603857
59	0x3d102c49	0.035198484
60	0x3d0b5ceb	0.03402416
61	0x39c29810	0.0003711586
62	0xbc01a358	-0.007912479
63	0x3cd23a9f	0.025662718
64	0x3c267d6c	0.010161739
65	0xbd007664	-0.031362906
66	0xbba8ae34	-0.0051477198
67	0x3a3874ce	0.0007036448
68	0x3cdfa275	0.027299145
69	0x394cb1d4	0.00019521202
70	0x3aff1453	0.0019461013
71	0x3b446ab2	0.0029970822
72	0xbc9be5d8	-0.019030496
73	0xbc12a4f1	-0.008950458
74	0x3cfd671a	0.030932952
75	0xbce6fa87	-0.028195633
76	0xbb68f690	-0.0035547353
77	0xbcf6336d	-0.030053819
78	0xbc4a574b	-0.012349914
79	0x3cb12e3b	0.02162849
80	0x3c197b4c	0.009367775
81	0x3c0c9118	0.008579515
82	0x3c98f0f9	0.018669592
83	0xbc82f1cc	-0.015984438
84	0x3d287890	0.041130602
85	0x3d30eee0	0.04319656
86	0x3b86e6c0	0.004116863
87	0xbcea3742	-0.028590802
88	0x3d1590d5	0.036515076
89	0xbc17dc9e	-0.009268908
90	0xbc2bc53c	-0.010484036
91	0x3c2470be	0.010036645
92	0x3c1c9a22	0.0095582325
93	0xbc5923cf	-0.013253166
94	0xbcd627ff	-0.026142118
95	0xbc973847	-0.018459452
96	0x3b50cae7	0.003185922
97	0xbcb5fe12	-0.022215877
98	0x3cc53b02	0.024075989
99	0x3b80b5d9	0.003927928
100	0x3c3c91d4	0.0115093775
101	0xbc9a3bb5	-0.018827299
102	0xbb47920e	-0.0030452046
103	0x3cd69999	0.026196288
104	0xbd3e576d	-0.046470094
105	0x3d00f058	0.03147921
106	0xbcdc216a	-0.026871402
107	0xbba3118c	-0.004976457
108	0x3ca7c297	0.02047853
109	0xbd431aa9	-0.047632847
110	0xb89e27de	-7.541453e-05
111	0xbcd106e2	-0.025515977
112	0xb8800a00	-6.105378e-05
113	0xbd045265	-0.03230514
114	0x3ce6660c	0.028124832
115	0xbcc71c2b	-0.024305424
116	0x3d536fc8	0.051620275
117	0x3d2ca94d	0.042153645
118	0x3cba9cf9	0.022779929
119	0xbc3f388c	-0.011671197
120	0xbcb6aed4	-0.022300161
121	0xbd083731	-0.03325576
122	0xbc92074e	-0.017825749
123	0xbcad037c	-0.021119826
124	0xbd1d8e99	-0.03846607
125	0x3cb3816d	0.021912301
126	0xbbf32b1d	-0.007420911
127	0xba5b0568	-0.00083549926
128	0xbc72f1b9	-0.014828139
129	0xbcba6446	-0.022752892
130	0x3d386052	0.045013733
131	0xbda234c0	-0.079202175
132	0xbd23b83e	-0.03997063
133	0x3c8bb05d	0.01705187
134	0xb99f4180	-0.00030375645
135	0x35777a00	9.2192204e-07
136	0x3cf4e3b1	0.029893728
137	0xbc94076f	-0.01806995
138	0x3b530db0	0.0032204203
139	0xbbcc7c1c	-0.006240381
140	0x3a46627c	0.0007567776
141	0xbd365e82	-0.044523723
142	0x3cef85e6	0.029238652
143	0x3bc6c55a	0.0060660066
144	0x3c2a4371	0.010392056
145	0xbc341f88	-0.010993846
146	0xbacdbb13	-0.0015696011
147	0x3d7ad2a7	0.06123605
148	0xba15b1c1	-0.00057103863
149	0x3c1fd0a1	0.009754331
150	0x3b5dc7a1	0.0033840912
151	0x3ce8c6e4	0.028415151
152	0x3cc04d0d	0.02347424
153	0x3b585afb	0.0033013213
154	0x3cb1d044	0.021705754
155	0x3d19f6d4	0.03758891
156	0xbc871edf	-0.016494213
157	0x3b6758e0	0.0035300776
158	0x3c770fa4	0.015079413
159	0xbca3d144	-0.019997247
160	0x3c48acd2	0.012248235
161	0xba52f68c	-0.00080476026
162	0xbcd02f48	-0.02541317
163	0x3d0b1f8a	0.033965625
164	0x3d16ef3e	0.036849253
165	0xbb717808	-0.0036845226
166	0x3cae0998	0.021244809
167	0x3ce02c47	0.027364863
168	0xb9dd3eb1	-0.00042199114
169	0xbc15575f	-0.009115069
170	0xba66c704	-0.00088034594
171	0xbc856785	-0.016284714
172	0x3bf1aa8b	0.0073750666
173	0x3ca23c39	0.019804107
174	0x3c8e1da8	0.017348126
175	0x3b9ca6b0	0.004780613
176	0xbbd41422	-0.0064721266
177	0xbb3ec0f5	-0.002910671
178	0x3d053b17	0.032527056
179	0x3d09aeea	0.033614077
180	0xbc570740	-0.013124287
181	0x3b98b37d	0.0046600685
182	0x3ab47132	0.0013766645
183	0xbd55b5dc	-0.052175388
184	0x3c94f595	0.018183509
185	0x3bef8aaf	0.0073102335
186	0x39c15efd	0.000368826
187	0x3a771d00	0.00094266236
188	0xbd296fe5	-0.041366477
189	0xbc57df2d	-0.013175768
190	0xb997e086	-0.00028968247
191	0x3c6d8a4e	0.014498306
192	0x3b932356	0.0044902964
193	0xbced8ffb	-0.02899932
194	0x3bea62ba	0.0071528824
195	0xbc9a7885	-0.018856296
196	0x3d69d322	0.057086118
197	0x3c107f48	0.008819409
198	0x3d1f1866	0.038841628
199	0x3d05cc97	0.032665815
200	0x3bb8aa44	0.0056355316
201	0xbbbbe47b	-0.005734024
202	0x3c168c8a	0.009188781
203	0x3c85066d	0.016238416
204	0xbbec525f	-0.007211968
205	0xbc1ad00e	-0.009449018
206	0xbce22463	-0.027605241
207	0x3d0ad6b3	0.03389616
208	0x3aee29bb	0.0018170396
209	0x3d5c79b5	0.053827006
210	0xbc4baff6	-0.012432089
211	0x3c86b93d	0.01644575
212	0xbcbc9765	-0.02302141
213	0x3bf9ce58	0.007623475
214	0x3a8bc503	0.0010663572
215	0x3c0b16f2	0.008489357
216	0x3d073afe	0.033015244
217	0x3b5f4ce2	0.0034072925
218	0xb8a58024	-7.891681e-05
219	0x3a8930c4	0.0010466804
220	0x3c8a66cc	0.01689472
221	0xbd33090e	-0.043709807
222	0xbd5dbb99	-0.054133985
223	0x3cc440f9	0.023956763
224	0xbbb06489	-0.0053830785
225	0xbc5da323	-0.013527664
226	0xbc27e353	-0.010247069
227	0xbd188b6a	-0.03724233
228	0xbcde429e	-0.027131375
229	0xbc1b470b	-0.009477387
230	0xbac90abd	-0.0015338283
231	0xbc337c9c	-0.010955002
232	0xbd5f88cd	-0.054573823
233	0x3d109805	0.035301227
234	0xbd5f4442	-0.054508455
235	0xbaca7d8a	-0.001544879
236	0xbb5e5929	-0.0033927655
237	0xbd677547	-0.05650833
238	0xbc350414	-0.011048336
239	0x3bf5cde5	0.007501351
240	0xbbad076a	-0.005280425
241	0x3a339cfd	0.0006851701
242	0xbcc69920	-0.024242938
243	0xbd85367a	-0.06504531
244	0xbc01ba20	-0.007917911
245	0x3bf4297c	0.0074512344
246	0xbb3114f6	-0.002702055
247	0x3c3888fe	0.01126313
248	0xbba3bd5c	-0.0049969386
249	0xbbe45266	-0.0069678305
250	0xb9709326	-0.00022943
251	0xbc836fde	-0.016044553
252	0xbc8ce429	-0.017198639
253	0x3c9ef87f	0.019405602
254	0xbc21028a	-0.0098272655
255	0x3b9d4446	0.0047993986

lstm.bias_ih_l1 f4 [512]
0	0xbe3ce5b1	-0.18446995
1	0x3d351258	0.044206947
2	0xbd8e7b55	-0.069571175
3	0xbd1797fb	-0.037010174
4	0xbdbc574a	-0.091963366
5	0xbe33d26a	-0.17560735
6	0x3bb08158	0.0053865127
7	0xbdff93dd	-0.124793746
8	0xbe2e421e	-0.17017409
9	0xbe3cac19	-0.18425025
10	0xbd218627	-0.03943458
11	0xbdad0fe5	-0.08450297
12	0xbe305038	-0.17218101
13	0xbda2c3ff	-0.079475395
14	0x3cc9f515	0.024652997
15	0xbe1fc5e3	-0.15602832
16	0xbd7ed0ae	-0.06221073
17	0xbe287b41	-0.16453268
18	0xbdc15a71	-0.094410785
19	0xbcb6262e	-0.022235002
20	0xbe09a47a	-0.13441649
21	0xbdd5a194	-0.10431209
22	0xbd33d7fb	-0.043907147
23	0xbe1ab7e0	-0.15109205
24	0xbe2bd437	-0.16780172
25	0xbdd7bec8	-0.105344355
26	0xbe5c775e	-0.2152991
27	0xbddc9d24	-0.1077216
28	0xbe598f74	-0.2124613
29	0xbe5b8104	-0.21435934
30	0xbca46b0a	-0.020070571
31	0xbe2e5247	-0.17023574
32	0xbe72b470	-0.23701644
33	0xbe313adf	-0.17307614
34	0xbe2a04fc	-0.16603464
35	0xbd0265e3	-0.031835448
36	0xbc35700b	-0.011074076
37	0xbe6d3e99	-0.2316841
38	0xbe2a9a03	-0.16660313
39	0xbe42c298	-0.19019544
40	0xbe376e39	-0.1791314
41	0xbda793eb	-0.0818251
42	0xbe54e77a	-0.20791426
43	0xbd960e6b	-0.07326969
44	0xbdbcd74c	-0.09220752
45	0xbd92cb24	-0.07167652
46	0x3b7e3a1b	0.0038791958
47	0xbe539433	-0.20662002
48	0xbcc128d7	-0.023579044
49	0xbe3aa28d	-0.1822607
50	0xbe771459	-0.24128856
51	0x3d1dc3bc	0.038516745
52	0xbdff71a9	-0.12472851
53	0xbd74b230	-0.059740245
54	0xbe65d357	-0.22443901
55	0xbdd24aee	-0.10268198
56	0x3dce2b68	0.10066873
57	0xbe62eb5b	-0.22160093
58	0xbe4c88f9	-0.19974126
59	0xbd47f383	-0.048816215
60	0xbd997b5d	-0.07494233
61	0xbe544e0a	-0.20732895
62	0xbe357ffb	-0.17724602
63	0xbe1f0975	-0.15530951
64	0xbdedcf50	-0.11611807
65	0xbd9fecec	-0.07808861
66	0xbe006437	-0.12538229
67	0xbe061685	-0.13094528
68	0xbe2a03fe	-0.16603085
69	0xbe521dae	-0.20519134
70	0xbe76a991	-0.24088122
71	0xbe6c9d61	-0.2310691
72	0xbe76a3be	-0.240859
73	0xbe34bc6d	-0.17650004
74	0xbcfdb9b8	-0.030972347
75	0x3d72dec2	0.05929447
76	0xbe575fc2	-0.21032622
77	0xbe5a8b73	-0.21342258
78	0xbd0f8ef6	-0.035048448
79	0xbdd92004	-0.106018096
80	0xbd8660ce	-0.06561433
81	0xbdb5cc2b	-0.088768326
82	0xbe271158	-0.1631521
83	0xbe4f6701	-0.20254137
84	0xbcbe4dc6	-0.023230445
85	0xbbfc1f48	-0.0076941587
86	0xbe2b76e5	-0.16744573
87	0xbe59a1c3	-0.21253113
88	0xbccd8037	-0.025085552
89	0xbe16fe1d	-0.14745374
90	0xbe1a1e1d	-0.1505055
91	0xbddfcc55	-0.10927645
92	0xbda02d36	-0.07821123
93	0xbdb20f80	-0.08694363
94	0xbdc74517	-0.09729975
95	0xbd2f85c9	-0.042852197
96	0xbd9725c6	-0.073802516
97	0xbe438717	-0.19094501
98	0xbdbe33fd	-0.0928726
99	0xbe330d43	-0.17485528
100	0xbd9a8a52	-0.07545914
101	0xbe6b1919	-0.22958793
102	0xbe75ec01	-0.2401581
103	0xbe301f4a	-0.17199436
104	0xbb9cced7	-0.0047853994
105	0xbe0a2188	-0.13489354
106	0xbd78f39a	-0.06077919
107	0xbe5859b7	-0.21127973
108	0xbd054a1d	-0.032541383
109	0xbc8b635d	-0.017015154
110	0xbe533b5d	-0.20628114
111	0x3b9b15e1	0.004732833
112	0xbe3626c5	-0.17788227
113	0xbd147462	-0.036243804
114	0xbe5bd2cf	-0.21467136
115	0xbc26d836	-0.010183385
116	0xbd990c8a	-0.07473095
117	0xbdc291cd	-0.095004655
118	0xbd5f35f2	-0.054494806
119	0xbe1c05af	-0.15236543
120	0x3c831982	0.016003374
121	0xbd0e16ee	-0.034689836
122	0xbe2ac6b9	-0.16677369
123	0x3cdaabeb	0.026693305
124	0xbdd28726	-0.10279684
125	0xbe350688	-0.17678273
126	0xbd6ee934	-0.05832787
127	0xbe50bc4d	-0.20384331
128	0xbe2776b8	-0.16353881
129	0xbdeb380e	-0.11485301
130	0xbe1d1058	-0.15338266
131	0xbda302dc	-0.0795953
132	0xbd922560	-0.07136035
133	0xbdd0f16b	-0.10202297
134	0xbe26a253	-0.1627286
135	0xbdb383c0	-0.08765364
136	0xbe0e5c98	-0.13902509
137	0xbdcf6739	-0.1012711
138	0xbe090979	-0.1338252
139	0xbe250da1	-0.1611848
140	0xbe044e82	-0.12920573
141	0xbdac1d8c	-0.08404073
142	0xbc86d865	-0.016460607
143	0xbd6758c9	-0.056481156
144	0xbda0c823	-0.07850673
145	0xbe0b538c	-0.1360609
146	0xbe30c078	-0.17260921
147	0xbe04b2c5	-0.1295882
148	0xbe0e2b06	-0.138836
149	0xbd9cff51	-0.07665885
150	0xbd753446	-0.059864305
151	0xbe007d4b	-0.12547795
152	0xbe13523a	-0.14386836
153	0xbe0dfeef	-0.1386678
154	0xbe284b41	-0.16434957
155	0xbcafa848	-0.021442547
156	0xbde98d93	-0.11403956
157	0xbe1e602d	-0.15466376
158	0xbc50d2c6	-0.012745565
159	0xbe08955e	-0.13338229
160	0xbe0f5973	-0.13998966
161	0xbe17ea2f	-0.14835428
162	0xbe313ae6	-0.17307624
163	0xbd840493	-0.06446185
164	0xbce66a02	-0.02812672
165	0xbe1edbb9	-0.15513505
166	0xbd9a9bde	-0.075492606
167	0xbe040104	-0.12891012
168	0xbddf942b	-0.10916933
169	0xbda3afd2	-0.079925194
170	0xbe1307a0	-0.14358377
171	0xbe06db14	-0.13169509
172	0xbe05ae5d	-0.13054796
173	0xbe065820	-0.13119555
174	0xbc755ad4	-0.014975268
175	0xbe13138d	-0.14362927
176	0x3d2bc670	0.04193729
177	0xbe15a768	-0.14614642
178	0xbe3afb0b	-0.18259828
179	0xb9fabca6	-0.0004782427
180	0xbdebb479	-0.11509032
181	0xbdf68435	-0.12036935
182	0xbe368c6f	-0.17827009
183	0xbd8abb96	-0.067740604
184	0x3d14e667	0.03635254
185	0xbdd01c71	-0.10161675
186	0xbe128752	-0.14309433
187	0xbda70392	-0.08154978
188	0xbdb75b4e	-0.08952962
189	0xbe04100f	-0.12896751
190	0xbdf4fcab	-0.11962255
191	0xbd8052ef	-0.06265818
192	0x3cb0919e	0.02155381
193	0xbdcab630	-0.09898031
194	0xbe1f4319	-0.1555294
195	0xbe2d63d1	-0.16932608
196	0xbd8b3e6c	-0.067990154
197	0xbdc571cd	-0.096408464
198	0xbe49055f	-0.19630955
199	0xbe4040d5	-0.18774731
200	0xbe1757b9	-0.14779557
201	0xbe450d38	-0.19243324
202	0xbdcd9195	-0.10037533
203	0x3d99fa27	0.07518416
204	0xbdd5732c	-0.10422358
205	0xbe23d1e6	-0.15998039
206	0xbb3605c0	-0.0027774423
207	0xbdb8aba0	-0.0901711
208	0xbd9378f9	-0.07200808
209	0xbd54c297	-0.051943388
210	0xbe321318	-0.17390096
211	0xbe1368ba	-0.14395419
212	0x3d1a44cd	0.03766327
213	0xbd6fbf11	-0.058531824
214	0xbe0acf73	-0.13555698
215	0xbe154bf4	-0.14579755
216	0xbdbddf8c	-0.09271154
217	0xbe110696	-0.14162669
218	0xbd849dbd	-0.06475399
219	0xbe1b582a	-0.1517035
220	0xbdb5975f	-0.08866762
221	0xbdfd63cc	-0.1237255
222	0xbe0e043b	-0.13868801
223	0xbb767c53	-0.0037610724
224	0xbe3d4bbc	-0.18485922
225	0xbe2052ad	-0.15656538
226	0xbe00d857	-0.12582527
227	0xbe11c950	-0.14236951
228	0xbd029467	-0.03187981
229	0xbe430b79	-0.19047345
230	0xbe340cb3	-0.1758297
231	0xbe449108	-0.1919595
232	0xbd88b12e	-0.06674419
233	0xbd9bc014	-0.07604995
234	0xbdf8288b	-0.12117108
235	0xbe0fb783	-0.14034848
236	0xbe2b444f	-0.16725276
237	0xbdb26e67	-0.08712464
238	0xbdcfd974	-0.10148898
239	0xbdf4f207	-0.119602256
240	0xbe0c3a80	-0.13694191
241	0xbddb86e8	-0.10719091
242	0xbe0f095f	-0.13968419
243	0xbc9e9395	-0.019357482
244	0xb9488bd2	-0.00019125573
245	0xbdf28834	-0.11842385
246	0xbd14859c	-0.036260232
247	0xbdd9fc5e	-0.10643838
248	0xbcb8d329	-0.022561627
249	0xbd19a70b	-0.03751282
250	0xbdab8d40	-0.08376551
251	0xbd8e2e9d	-0.069424845
252	0x3cf49eb2	0.029860828
253	0xbe290e14	-0.16509277
254	0xbdffa13d	-0.12481926
255	0xbe2e15d0	-0.17000508
